RL/Realization/DDPG/best_model_pendulum.pkl (torch_old, 489891 bytes, 5 tensors)

linear1.weight f4 [400, 3]
0	0x3d3cf4e2	0.046131976
1	0xbd9656ce	-0.073407754
2	0xbb6a5b20	-0.003575988
3	0x3d4ec496	0.050480448
4	0x3d0ca3a6	0.034335755
5	0x3db335ef	0.087505214
6	0x3de5555d	0.111979224
7	0xbda2a19a	-0.07940979
8	0x3cbcc5cc	0.023043536
9	0x3d90a245	0.070622005
10	0xbd04123a	-0.032243945
11	0x3de19e07	0.110164694
12	0xbc393958	-0.011305176
13	0x3deb5335	0.1149048
14	0x3b7a2520	0.00381691
15	0xbd627a1e	-0.05529224
16	0xbde1ba1e	-0.11021827
17	0xbcf441b0	-0.029816478
18	0x3d4b26ca	0.04959754
19	0xbdc53c8b	-0.09630688
20	0xbbe13020	-0.006872192
21	0x3d994db3	0.07485523
22	0x3da11e19	0.07867069
23	0x3c68b9d8	0.014204465
24	0x3bafd870	0.0053663775
25	0xbd772499	-0.060337637
26	0x3dd4a857	0.10383671
27	0x3d892131	0.06695784
28	0xbd4e45d2	-0.050359555
29	0x3c65ca58	0.014025293
30	0x3df81483	0.12113287
31	0x3c3f2f18	0.011668943
32	0xbd63879c	-0.05554925
33	0x3d5f0b86	0.05445435
34	0x3c8e0f0c	0.01734116
35	0xbd1d2cb8	-0.038372725
36	0x3de35719	0.11100597
37	0x3d9d4adb	0.07680293
38	0x3d1e59b2	0.03865976
39	0x3dc315d7	0.0952565
40	0xbb9ef6e0	-0.004851207
41	0x3d91ef9f	0.07125782
42	0xbd98f8e6	-0.074693486
43	0xbd960b24	-0.07326344
44	0x3d3fcc3e	0.04682564
45	0x3ddf6bdb	0.10909244
46	0xbddb8e56	-0.10720508
47	0x3ccda62c	0.025103651
48	0x3dc59497	0.09647482
49	0xbb111f00	-0.0022143722
50	0xbcc28afc	-0.023747914
51	0x3dee8d73	0.11648073
52	0xbb2e9420	-0.0026638582
53	0x3cd0cda4	0.025488682
54	0xbd2a4fd2	-0.04158003
55	0xbd366d0e	-0.044537596
56	0xbb223560	-0.0024751052
57	0xbdc769e0	-0.09736991
58	0xbda7c157	-0.081911735
59	0x3c9792e4	0.01850266
60	0x3cfc9154	0.030831017
61	0x3d55864e	0.052130036
62	0x3d0f4806	0.034980796
63	0xbde5da06	-0.11223225
64	0x3cfbd14c	0.030739449
65	0x3de246db	0.11048671
66	0x3dcb2a53	0.09920182
67	0x3d3ec3ea	0.046573557
68	0xbcdd8004	-0.027038582
69	0xbdc08646	-0.094006106
70	0xbc8a74f8	-0.016901478
71	0xbd93f215	-0.07223908
72	0x3d9d8bb5	0.076926626
73	0x3d9db2ab	0.07700094
74	0x3d1e01da	0.038575985
75	0x3dbefb05	0.09325222
76	0x3de101e7	0.10986691
77	0x3c42ab98	0.011881731
78	0x3d2288a2	0.039681084
79	0x3dd51c15	0.10405747
80	0xbcb1cb68	-0.021703437
81	0xbb8cbea0	-0.004295185
82	0xbdadd476	-0.08487789
83	0xbbd3a180	-0.0064584613
84	0xbc753a08	-0.014967449
85	0xbd748fdb	-0.059707504
86	0xbd2394d6	-0.039936863
87	0xbdb8b5e8	-0.09019071
88	0x3ad8c240	0.0016537383
89	0xbd6e9e24	-0.058256283
90	0x3c8cda0c	0.017193817
91	0xbd885844	-0.0665746
92	0x3d7c6a52	0.061624832
93	0xbda99177	-0.08279698
94	0x3d78f252	0.06077797
95	0xbde58f24	-0.112089425
96	0xbde3be10	-0.11120236
97	0x372cc000	1.0296702e-05
98	0x3cf8d8d4	0.03037683
99	0xbded0637	-0.11573451
100	0x3c142898	0.009042881
101	0x3dbb3749	0.09141404
102	0xbc1e3b68	-0.009657718
103	0x3da0b207	0.07846456
104	0x3d72110e	0.059098296
105	0x3d4266ca	0.04746131
106	0x3cd4566c	0.025920115
107	0xbd6f5872	-0.058433957
108	0xbd8f2b6b	-0.06990703
109	0x3df00247	0.11719184
110	0x3d6195da	0.05507455
111	0xbde374f9	-0.11106295
112	0xbd0b35d6	-0.03398689
113	0x3db9e64b	0.09077128
114	0x3cbefe3c	0.023314588
115	0x3cefdc44	0.029279836
116	0xbd595516	-0.05305966
117	0xbd3566ce	-0.044287495
118	0x3cb09174	0.021553732
119	0xbd162fc2	-0.03666664
120	0xbc1327d8	-0.008981667
121	0xbdc0f8be	-0.09422444
122	0x3dade51f	0.08490967
123	0xbd4eea76	-0.050516568
124	0xbcfa1fe0	-0.030532777
125	0x3d44f74e	0.04808741
126	0xbcddd5b4	-0.02707944
127	0x3dc406ef	0.09571635
128	0xbdf6c9a4	-0.12050179
129	0xbcc029e8	-0.023457482
130	0xbdd57197	-0.10422056
131	0x3c169378	0.009190433
132	0xbde96f3c	-0.113981694
133	0x3db01037	0.08596843
134	0xbced1774	-0.028941847
135	0x3d545b1e	0.05184471
136	0x3c8b6524	0.017016001
137	0x3bd62fb0	0.0065364465
138	0x3cdb398c	0.026760839
139	0xbdb5d413	-0.088783406
140	0xbdf1c6e4	-0.118055135
141	0xbdb72b98	-0.08943862
142	0x3d092722	0.033484586
143	0xbd8d955e	-0.06913255
144	0x3df5a1fb	0.11993786
145	0x3dddc3b3	0.10828342
146	0xbd8f6a7a	-0.07002731
147	0x3d035b72	0.03206963
148	0xbdc575a4	-0.09641579
149	0x3dc9e3a5	0.09857873
150	0xbdbfb3be	-0.09360455
151	0xbd193d8a	-0.037412204
152	0xbddf4e2b	-0.10903581
153	0xbde711f6	-0.11282723
154	0x3dcbeec9	0.09957654
155	0xbc7ff7e0	-0.015623063
156	0x3cc4984c	0.023998402
157	0x3d8ec961	0.06972004
158	0x3db7e3df	0.0897901
159	0xbcef0c78	-0.02918075
160	0x3d446c5e	0.04795491
161	0x3de94679	0.11390395
162	0xbda43e27	-0.08019667
163	0x3d12b21e	0.035814397
164	0x3d8b114f	0.06790411
165	0x3de76ca7	0.11300021
166	0x3db501df	0.088382475
167	0x3debd277	0.11514752
168	0x3dad8e37	0.08474391
169	0x3dd39f9b	0.10333177
170	0x3dd92fc7	0.10604816
171	0x3dc69a81	0.09697438
172	0x3d053892	0.032524653
173	0xbd854c9d	-0.065087534
174	0xbdaa156a	-0.08304866
175	0xbd8131ce	-0.063083276
176	0x3d285ce2	0.041104205
177	0x3de14f21	0.11001421
178	0x3c816394	0.015794553
179	0x3c484978	0.012224548
180	0xbd319ea0	-0.043364167
181	0xbd867687	-0.06565576
182	0xbdb8fc3e	-0.090324864
183	0xbd6c6ab6	-0.057718955
184	0x3de0ffa9	0.10986263
185	0x3da2ca75	0.07948772
186	0x3daa79b1	0.08323992
187	0xbdb2c67c	-0.08729264
188	0x3db01f03	0.08599665
189	0xbcefd01c	-0.029274039
190	0x3d5b3a02	0.053522117
191	0xbdc95b11	-0.09831823
192	0xbddf85c3	-0.10914185
193	0x3bf1aed0	0.0073755756
194	0xbcd8aa80	-0.026448488
195	0xbce0b744	-0.027431138
196	0xbdbb8eaf	-0.09158074
197	0x3d752796	0.059852205
198	0xbd6bb8bc	-0.057549223
199	0x3d0fa3a6	0.035068177
200	0x3da4da8b	0.08049496
201	0x3d9783e3	0.07398202
202	0xbdc458be	-0.09587239
203	0x3d378392	0.04480321
204	0xbc9f034c	-0.019410752
205	0x3dc26d43	0.09493496
206	0xbdf2cae5	-0.11855105
207	0x3c5c2be8	0.013438202
208	0xbd486c66	-0.0489315
209	0xbddd041e	-0.10791801
210	0xbcc6aa80	-0.024251223
211	0x3ddafe47	0.10693031
212	0xbd5d2886	-0.053993724
213	0xbc5034b8	-0.012707882
214	0xbd4cce62	-0.05000151
215	0xbd92a810	-0.07160962
216	0x3deb44b7	0.11487716
217	0xbd4e5f7c	-0.05038403
218	0xbdc77abe	-0.09740208
219	0x3db16ef1	0.086637385
220	0x3de0e4fb	0.109811746
221	0xbddba87d	-0.10725496
222	0x3ddfbd45	0.10924772
223	0x3d2ac30a	0.04168991
224	0x3dc8015f	0.097658865
225	0xbbd991d0	-0.0066396967
226	0xbdbf8ab0	-0.093526244
227	0x3d34e7ae	0.04416626
228	0x3cb57f3c	0.022155397
229	0x3d3afca6	0.0456511
230	0xbd2a5f32	-0.04159469
231	0x3df764ff	0.1207981
232	0x3be903d0	0.00711105
233	0x3d8a544f	0.06754362
234	0xbcd17898	-0.025570199
235	0xbca4c260	-0.020112216
236	0xbdd6a714	-0.104810864
237	0x3d3edca6	0.046597145
238	0x3da38913	0.07985129
239	0xbdd5f958	-0.10447949
240	0xbcdd05e0	-0.02698034
241	0xbd6742d8	-0.05646023
242	0x3d43296a	0.047646917
243	0xbd8c6c31	-0.068565734
244	0x3d886f3d	0.06661842
245	0xbd1a8dfa	-0.037733056
246	0xbc0f1b68	-0.0087345615
247	0xbd30645a	-0.043064453
248	0x3d79104a	0.06080655
249	0xbc5b1200	-0.013370991
250	0xbdeb6cd4	-0.11495367
251	0xbcdc1078	-0.026863322
252	0xbda17dd6	-0.078853294
253	0x3d3d95ba	0.04628537
254	0x3c118f78	0.008884303
255	0xbce63fec	-0.028106652

linear1.bias f4 [400]
0	0xbec6d438	-0.38833785
1	0xbf02b98a	-0.5106436
2	0xbe381f9e	-0.17980811
3	0x3eea1e84	0.45726407
4	0xbf012062	-0.5044004
5	0xbeb9bffe	-0.3627929
6	0xbe6c867a	-0.23098174
7	0x3e81b936	0.25336617
8	0x3cf6ebc0	0.030141711
9	0x3ecec000	0.4038086
10	0x3e96bfce	0.2944321
11	0xbef8fb45	-0.48629203
12	0xbebf37de	-0.3734731
13	0x3e603e9c	0.21898884
14	0xbf09d3e9	-0.53838974
15	0x3e97b552	0.29630524
16	0x3e6097f4	0.21932966
17	0x3ece0580	0.4023857
18	0x3ebece42	0.37266737
19	0xbeb5c6e8	-0.35503316
20	0xbf071d2c	-0.5277889
21	0xbdfb8c10	-0.12282574
22	0xbe1cee08	-0.15325177
23	0x3e736e88	0.23772633
24	0x3ec4be9c	0.38426673
25	0x3e5dd274	0.21662313
26	0x3cde6020	0.027145445
27	0x3ee4c454	0.44681036
28	0x3e166634	0.14687425
29	0xbe5ff60e	-0.21871206
30	0x3e2b06dc	0.16701835
31	0x3ee74390	0.45168734
32	0xbefa398e	-0.48872036
33	0xbecc744b	-0.39932474
34	0xbe12b78e	-0.14327833
35	0x3bcf2900	0.0063220263
36	0x3ec45d82	0.3835259
37	0x3e9b1986	0.3029291
38	0xbe9f32d2	-0.3109346
39	0xbf123942	-0.5711862
40	0x3e43ba20	0.1911397
41	0x3e8df2b6	0.27724236
42	0xbf037c63	-0.51361674
43	0x3e777644	0.24166209
44	0x3f01237a	0.5044476
45	0x3c4a1f40	0.012336552
46	0xbe2d7aa2	-0.16941312
47	0xbdc10c40	-0.094261646
48	0xbe0c51e2	-0.13703111
49	0xbd235d60	-0.03988397
50	0x3f13a102	0.57667553
51	0x3ea34d6e	0.31895012
52	0x3e647928	0.22311842
53	0xbeee543f	-0.4654865
54	0x3eb542c4	0.354025
55	0x3eeb8594	0.4600035
56	0x3ec6384a	0.3871482
57	0xbdd52324	-0.10407093
58	0xbee219aa	-0.44160205
59	0xbcd4fe00	-0.026000023
60	0xbe972dd8	-0.29527164
61	0x3ee08450	0.43850946
62	0xbe3bca2c	-0.18338841
63	0x3f0efcaa	0.55854285
64	0x3f0cac72	0.5495063
65	0x3da7b498	0.081887424
66	0x3dce3d40	0.10070276
67	0xbe47c7c8	-0.19509804
68	0x3d181400	0.03712845
69	0xbf008b19	-0.50212246
70	0xbe272faa	-0.16326776
71	0x3eb01460	0.34390545
72	0xbf108238	-0.564487
73	0x3c706e40	0.014674723
74	0xbb878580	-0.0041357875
75	0x3c567ec0	0.013091743
76	0x3e912d0c	0.2835468
77	0xbe12f170	-0.14349914
78	0xbef26b98	-0.47347713
79	0xbe52603e	-0.20544526
80	0xbf1122c6	-0.56693685
81	0xbe151160	-0.1455741
82	0x3ec812da	0.39076883
83	0x3e9ee458	0.31033587
84	0xbee21962	-0.4415999
85	0x3f067e56	0.52536523
86	0x3dcb9448	0.09940392
87	0xbf0527ac	-0.5201366
88	0xbefdbbfb	-0.4955748
89	0xbd6c8f60	-0.05775392
90	0x3e1944f0	0.14967704
91	0xbf0ca384	-0.54937005
92	0x3ef6c948	0.4820044
93	0x3ea67628	0.3251202
94	0x3f0e602c	0.55615497
95	0x3e462a7c	0.19352144
96	0xbd265170	-0.04060501
97	0x3dbdc3d0	0.09265864
98	0x3e75a428	0.23988402
99	0xbdd7d3b4	-0.10538426
100	0x3f0efdca	0.55856
101	0x3d432fe0	0.04765308
102	0x3e643238	0.22284782
103	0x3d100490	0.0351606
104	0xbeb4d1ec	-0.35316408
105	0x3d062f30	0.032759845
106	0xbe8f66ae	-0.28008026
107	0x3dbbed58	0.09176129
108	0x3e389adc	0.18027824
109	0xbea53fef	-0.3227534
110	0xbe4b70d6	-0.19867262
111	0x3eb45194	0.3521849
112	0xbea1f33c	-0.31630886
113	0x3ec28626	0.37992972
114	0x3c621280	0.013798356
115	0xbf0d01a9	-0.5508066
116	0xbe6ef4d2	-0.23335579
117	0xbe1ae38c	-0.15125865
118	0xbcc2d260	-0.023781955
119	0x3ef8924c	0.48549116
120	0x3e16e21c	0.14734691
121	0xbefdb419	-0.49551466
122	0x3d99c4c8	0.07508236
123	0xbe0d88b8	-0.13821685
124	0xbe2feed2	-0.17180946
125	0xbea90f6c	-0.33019578
126	0x3f1384b2	0.5762435
127	0x3f0a20a8	0.5395608
128	0xbe8f66bc	-0.28008068
129	0xbea0abee	-0.31381172
130	0x3ee3c658	0.44487262
131	0xbf08d8b2	-0.5345565
132	0xbe12cd56	-0.14336142
133	0x3f0d97da	0.5530983
134	0x3f03a41a	0.51422274
135	0x3ec273da	0.37979013
136	0xbdbfe238	-0.0936932
137	0xbe9414f2	-0.2892223
138	0xbf095d5c	-0.5365808
139	0x3eebe334	0.4607178
140	0x3eb0fab2	0.34566265
141	0x3ddcf000	0.10787964
142	0x3da29dd8	0.079402626
143	0x3e626ff8	0.22113025
144	0xbf0b0f9c	-0.54320693
145	0xbe58ce44	-0.21172434
146	0xbe66a3b8	-0.22523391
147	0x3e1d3d30	0.15355372
148	0xbf11a0a8	-0.56885767
149	0xbea97390	-0.3309598
150	0x3f0de748	0.5543103
151	0x3cdc8220	0.026917517
152	0xbeb846f7	-0.35991642
153	0xbf0d964c	-0.5530746
154	0x3e8415ba	0.25797826
155	0xbd97b230	-0.074070334
156	0x3e59d180	0.21271324
157	0xbe669cdc	-0.22520775
158	0x3e22033c	0.15821546
159	0x3f11b082	0.56909955
160	0xbe2f6856	-0.17129645
161	0x3ec30ea8	0.3809712
162	0x3c4d9300	0.012547255
163	0xbd6190a0	-0.055069566
164	0xbec66df9	-0.38755777
165	0x3e27da40	0.1639185
166	0xbf11fdaa	-0.57027686
167	0x3eb5be4c	0.35496747
168	0xbdd50a2c	-0.10402331
169	0x3ee6c534	0.4507233
170	0x3e803de6	0.25047225
171	0xbec14ced	-0.37754002
172	0x3e546ae4	0.207439
173	0xbed25384	-0.41079342
174	0x3e35a8f0	0.17740226
175	0x3ea752b8	0.32680297
176	0xbded60dc	-0.1159074
177	0xbdb9663c	-0.09052703
178	0xbe4e7568	-0.20161974
179	0xbe6e0cec	-0.23247117
180	0xbd89abd0	-0.06722224
181	0x3f05d7da	0.5228249
182	0x3dd5ca38	0.10438961
183	0xbc9f0300	-0.01941061
184	0x3ef23038	0.47302413
185	0x3ea6a3c2	0.32546812
186	0xbed94cfd	-0.4244155
187	0x3ea83394	0.3285185
188	0xbeedd5e8	-0.4645226
189	0xbef49e6c	-0.47777116
190	0x3ecfb176	0.4056508
191	0x3d40a580	0.047032833
192	0xbe72b36c	-0.23701257
193	0x3ec43554	0.38321936
194	0xbe40b1e4	-0.1881786
195	0x3eeb5794	0.45965254
196	0x3d11cc10	0.035595
197	0xbe1cd228	-0.15314543
198	0x3ed406bc	0.41411388
199	0x3d335080	0.043777943
200	0xbebc7069	-0.36804512
201	0x3d5ebcf0	0.054379404
202	0x3efed10c	0.49768865
203	0x3f08166c	0.53159213
204	0xbee80ca6	-0.4532215
205	0xbeb82d62	-0.35972124
206	0xbe893135	-0.26795354
207	0xbe47fb04	-0.19529349
208	0xbdb6eab8	-0.08931488
209	0x3e24d268	0.16095889
210	0xbefcd609	-0.49382046
211	0x3d896998	0.067095935
212	0xbe0d5924	-0.13803536
213	0xbe10caae	-0.14139816
214	0x3edc20e4	0.42993844
215	0xbebc47e8	-0.3677361
216	0x3da81578	0.0820722
217	0xbdaf2678	-0.08552259
218	0xbe3dfc7e	-0.1855335
219	0x3ee763c8	0.45193315
220	0xbbe87700	-0.007094264
221	0xbece624e	-0.40309376
222	0xbed7769a	-0.42082673
223	0xbf121a54	-0.57071424
224	0x3f0bbebc	0.5458791
225	0xbee8ed70	-0.4549365
226	0xbe8de304	-0.27712262
227	0xbe8e5362	-0.2779799
228	0xbeaa706d	-0.332889
229	0x3e4ae780	0.19814873
230	0xbec38042	-0.3818379
231	0xbed7bdfc	-0.42137134
232	0x3e1b5a70	0.15171218
233	0x3e65befc	0.22436136
234	0x3e9ff376	0.31240433
235	0xbef3d5ee	-0.47624153
236	0x3eba7ad6	0.3642184
237	0xbe4d8cf2	-0.20073298
238	0xbc885560	-0.016642272
239	0xbc61f580	-0.013791442
240	0x3e4c02e0	0.19922972
241	0xbec4490e	-0.38336986
242	0x3ebeca4c	0.37263715
243	0xbe41d94c	-0.18930548
244	0xbede125d	-0.43373385
245	0xbefee3b8	-0.4978311
246	0xbd0790b0	-0.03309697
247	0x3eb70e6c	0.3575319
248	0xbef4cb87	-0.4781153
249	0x3ecbc228	0.39796567
250	0xbe3d7c80	-0.18504524
251	0xbe48eb72	-0.19621065
252	0xbef74aa0	-0.48299122
253	0x3ef33474	0.47500956
254	0x3f0bff92	0.54686844
255	0xbee96d0b	-0.45591006

linear2.weight f4 [300, 400]
0	0xbac0db80	-0.0014713854
1	0x3a173280	0.0005767718
2	0x3cc963e4	0.024583764
3	0x3d290cb2	0.041271873
4	0xbd04dacd	-0.032435227
5	0xbdad0535	-0.08448259
6	0x3c524ba8	0.012835421
7	0xbdbd0d4b	-0.09231051
8	0x3d3a367e	0.045462124
9	0xbd8658f0	-0.06559932
10	0xbd7dc557	-0.061955776
11	0x3da7a5ed	0.08185945
12	0xbcdc63a4	-0.026902981
13	0x3c4c8758	0.01248344
14	0x3db166a5	0.08662156
15	0x3c728c08	0.014803894
16	0x3d1a7c2e	0.037716083
17	0xb9d7d600	-0.00041167438
18	0xbd72a35a	-0.059237815
19	0xbd8133eb	-0.06308731
20	0x3db6e173	0.0892972
21	0xbca8631c	-0.020555072
22	0xbd63e0f4	-0.055634454
23	0x3d0548d6	0.032540165
24	0x3dbb160b	0.09135064
25	0xbd22ed6c	-0.039777204
26	0xbcb4d674	-0.022074915
27	0xbda2a174	-0.07940951
28	0x3cde642c	0.027147375
29	0x3da81825	0.0820773
30	0xbdaede65	-0.08538512
31	0x3d9f522b	0.07779344
32	0x3da18021	0.07885767
33	0x3d3d4ffe	0.046218865
34	0x3da3590f	0.07975971
35	0x3d94927b	0.072545014
36	0xbc103598	-0.00880184
37	0x3c833cbc	0.016020171
38	0x3d8ca48b	0.068673216
39	0x3d0f6f06	0.03501799
40	0xbacd4980	-0.0015662163
41	0xbc6d6890	-0.014490262
42	0x3b28fcc0	0.0025785416
43	0x3d584c12	0.05280692
44	0x3d123d3e	0.035702936
45	0xbdb334da	-0.08750315
46	0x3c0d90b8	0.008640461
47	0xbd0995b1	-0.033590022
48	0xbd2c73fc	-0.0421028
49	0xbd9a3f93	-0.07531657
50	0x3d4f9032	0.050674625
51	0x3d1700c2	0.036865957
52	0x3dba3685	0.0909243
53	0xbd3ec9b2	-0.04657907
54	0xbc427928	-0.011869706
55	0x3d3cc5d2	0.046087094
56	0xbd52fb0f	-0.05150896
57	0xbd9883e6	-0.07447033
58	0x3ce67664	0.028132625
59	0x3d6b9c7a	0.057522275
60	0xbd361fad	-0.044463802
61	0xbd411964	-0.047143355
62	0x3cf50e50	0.029914051
63	0x3d8eebaf	0.06978547
64	0x3d2db0f2	0.042405076
65	0xbc120b28	-0.008913793
66	0x3c0f68a8	0.008752979
67	0xbb3dace0	-0.0028942153
68	0xbd99125f	-0.07474207
69	0x3d9c5961	0.07634235
70	0xbd6099df	-0.054834243
71	0xbd72b466	-0.059254073
72	0x3da7601d	0.08172629
73	0x3c23e578	0.01000344
74	0xbb2ed8a0	-0.0026679412
75	0xbdbceccc	-0.09224853
76	0xbcd5356c	-0.02602645
77	0xbd9b06e9	-0.075696774
78	0xbcf32e80	-0.029685259
79	0x3c6aa868	0.014322378
80	0x3d76b4aa	0.06023089
81	0xbd1c785c	-0.03820072
82	0x3c4839f0	0.012220845
83	0xbd94d6bf	-0.07267522
84	0x3d996e05	0.07491688
85	0xbb797920	-0.003806658
86	0xbd3d8a62	-0.04627455
87	0xbdbd3086	-0.09237771
88	0x3caa44a0	0.020784676
89	0xbcda3f60	-0.026641548
90	0x3b547fe0	0.0032424852
91	0x3d6f4492	0.058415003
92	0x3d451e2a	0.04812447
93	0x3d986a73	0.074421786
94	0xbaab4b00	-0.0013068616
95	0xbd1f1331	-0.03883666
96	0xbcb5f2b0	-0.022210449
97	0xbd2e016e	-0.042481832
98	0x3d8d058f	0.06885826
99	0xbca08560	-0.019594848
100	0xbda50caa	-0.08059056
101	0x3dbbc7c1	0.091689594
102	0x39f76100	0.00047183782
103	0xbdb5e783	-0.08882048
104	0xbd9b6c6a	-0.07589038
105	0xbd13a739	-0.036048148
106	0xbbd51e30	-0.006503843
107	0x3d9439f9	0.0723762
108	0x3becbd90	0.007224746
109	0xbdad7ab3	-0.08470669
110	0x3cea3c64	0.02859325
111	0x3ccc11c4	0.024910815
112	0x3c1b51a0	0.00947991
113	0x3d30528a	0.043047465
114	0xbbe73730	-0.0070561394
115	0x3da38ded	0.079860546
116	0xbd092dd1	-0.03349096
117	0xbd458d3c	-0.048230395
118	0x3d106f9e	0.035262696
119	0xbdb3a884	-0.08772376
120	0x3d788d66	0.060681723
121	0xbd56f6e3	-0.052481543
122	0x3d845409	0.06461341
123	0xbd88e2d6	-0.066838905
124	0xbba64fa0	-0.00507541
125	0xbd0034ab	-0.031300228
126	0x3d4f4ac2	0.050608404
127	0xbd515065	-0.05110206
128	0x3d73ab7e	0.05948972
129	0xbd964bcc	-0.07338676
130	0x3d2cab7a	0.04215572
131	0x3cad3de8	0.021147683
132	0xbc80fa9c	-0.0157445
133	0xbd9f11b2	-0.07767047
134	0xbc36dfa8	-0.011161722
135	0xbc800bcc	-0.015630625
136	0x3d55769a	0.05211506
137	0xbcdc82dc	-0.026917867
138	0xbd987044	-0.07443288
139	0x3ba9e8b0	0.005185209
140	0xbd684f15	-0.056716044
141	0x3d9a7d3f	0.0754342
142	0x3d8623a1	0.065497644
143	0x3cab09f0	0.020878762
144	0xbdb888c0	-0.09010458
145	0xbd692866	-0.056923293
146	0xbd68630c	-0.056735083
147	0xbbf603a0	-0.0075077564
148	0xbd2b613d	-0.04184078
149	0x3c2628d8	0.010141574
150	0x3d7aec8a	0.061260737
151	0x3c1fc770	0.009752139
152	0xbdb441e3	-0.088016294
153	0xbd90830c	-0.07056245
154	0xbda2e95c	-0.07954666
155	0xbd472277	-0.048616853
156	0x3cd41e9c	0.025893502
157	0x3d8023d1	0.062568314
158	0x3d108272	0.035280652
159	0x3d9022a1	0.07037855
160	0x3b935880	0.004496634
161	0x3d6ad432	0.05733127
162	0x3d75449a	0.059879877
163	0x3d6998a6	0.057030343
164	0x3ce925a0	0.028460324
165	0x3c30cc10	0.01079084
166	0x3db27fd9	0.08715791
167	0xbd83e740	-0.06440592
168	0x3d5fead2	0.0546673
169	0xbd530bf2	-0.051525064
170	0xbd3b7f7d	-0.04577588
171	0xbc428688	-0.011872895
172	0x3db1ef2b	0.08688196
173	0xbd174600	-0.03693199
174	0xbc5ec3d8	-0.0135964975
175	0x3d039f88	0.032134563
176	0x3c9692c0	0.018380523
177	0xbc4f4590	-0.012650862
178	0x3af40540	0.0018617287
179	0xbcb2f1d4	-0.021843828
180	0xbd80a67d	-0.06281755
181	0xbc7349b0	-0.014849111
182	0x3d9f03d5	0.07764403
183	0xbda0cc00	-0.0785141
184	0x3d47431a	0.048647977
185	0xbcf119b8	-0.029431209
186	0xbda4509a	-0.08023186
187	0xbd00a066	-0.031402968
188	0x3dbc60a7	0.091981225
189	0x3c2b7460	0.010464758
190	0x3c33d2f8	0.010975592
191	0x3d255122	0.040360577
192	0x3d0725a6	0.03299489
193	0xbb555060	-0.0032549128
194	0xbc4250e8	-0.01186011
195	0x3b785e20	0.00378979
196	0xbd81bed8	-0.06335229
197	0xbbeefd20	-0.0072933584
198	0x3daf6a8f	0.08565246
199	0xbd755b04	-0.059901252
200	0xbdbb1866	-0.09135513
201	0xbd2ade2a	-0.04171578
202	0xbd0263e6	-0.03183355
203	0x3c8d3534	0.017237283
204	0x3d217482	0.03941775
205	0x3da9ca27	0.082905106
206	0xbd93ccb0	-0.072167754
207	0x3dae56f5	0.085126795
208	0xbd85df7d	-0.06536768
209	0x3d8269a1	0.06367803
210	0xbc64eda8	-0.013972677
211	0x3d7054be	0.058674566
212	0x3c96b0a8	0.018394783
213	0xbcf3c918	-0.029758975
214	0x3d7f4d72	0.062329717
215	0xbd857348	-0.06516129
216	0x3d09cbe2	0.033641703
217	0x3da63565	0.08115653
218	0xbd7d1bc6	-0.061794065
219	0xbccbaa88	-0.02486159
220	0x3be134c0	0.0068727434
221	0xbd009f85	-0.03140213
222	0xbd7463ea	-0.059665598
223	0xbd4057b8	-0.046958655
224	0xbce749fc	-0.02823352
225	0x3d876a1b	0.06612035
226	0xbdb53d7b	-0.08849617
227	0x3bafec20	0.0053687245
228	0x3c854938	0.016270265
229	0xbd5a50b7	-0.053299632
230	0x3c430988	0.011904128
231	0xbc28bf68	-0.010299541
232	0xbdb9fee8	-0.09081823
233	0x3bedaae0	0.007253036
234	0x3d36fd02	0.04467488
235	0x3d81d391	0.06339181
236	0xbcef53ec	-0.029214822
237	0xbcf0d65c	-0.02939909
238	0xbd570c28	-0.052501827
239	0xbd92c6de	-0.07166837
240	0xbd0d0e2e	-0.03443735
241	0xbda939c7	-0.08262973
242	0x3d3ee31e	0.046603315
243	0x3d6c42fa	0.05768106
244	0x3cf445fc	0.029818527
245	0xbcbc10a4	-0.022957154
246	0xbd0de722	-0.034644254
247	0xbd60174c	-0.054709718
248	0xbd8f1d28	-0.06987983
249	0x3d5c1306	0.05372908
250	0xbdb3825a	-0.08765097
251	0x3ad25fc0	0.0016050264
252	0xba6e9880	-0.0009101704
253	0x3c95f314	0.018304385
254	0xbd4d7b39	-0.050166342
255	0x3c60ce50	0.013721064

linear2.bias f4 [300]
0	0x3d34454d	0.044011403
1	0xbcdf389d	-0.027248675
2	0x3c75039c	0.014954474
3	0x3c22d000	0.009937286
4	0xbd39a6a5	-0.04532494
5	0xbd0619d0	-0.03273946
6	0xbcb31673	-0.02186129
7	0xbd2b531e	-0.041827314
8	0xbd3984ca	-0.045292653
9	0xbc906b3a	-0.017629255
10	0xbc52e188	-0.012871154
11	0xbbfeb9e8	-0.0077736266
12	0xbce6687d	-0.028125996
13	0x3cf7d836	0.030254465
14	0xbd35f05f	-0.04441869
15	0xbd06e2d4	-0.032931164
16	0x3cef6386	0.029222261
17	0x3d499d7d	0.04922246
18	0xbc5bb378	-0.013409488
19	0x3cdeb37e	0.027185198
20	0x3cfb51be	0.030678626
21	0x3a531680	0.0008052364
22	0xbca09c1a	-0.019605685
23	0x3ad6b240	0.0016380027
24	0xbbda1fc0	-0.006656617
25	0x3d3bfec1	0.04589725
26	0xbcef84da	-0.029238153
27	0x3b71a9b0	0.0036874823
28	0xbd1bf443	-0.038074743
29	0xbc9723ba	-0.018449653
30	0x3d0ce355	0.03439649
31	0x3ce1daf2	0.027570222
32	0x3ca22e6a	0.019797523
33	0xbd23922a	-0.039934315
34	0xbc048e20	-0.008090526
35	0xbd48b437	-0.04899999
36	0xbc927150	-0.017876297
37	0xbd1052fe	-0.035235398
38	0x3d003749	0.031302724
39	0x3ce14d16	0.027502578
40	0x3c1cda34	0.009573508
41	0xbcef8c50	-0.02924171
42	0x3c0d192c	0.0086119585
43	0xbd1c4fda	-0.03816209
44	0xbd036c96	-0.032085977
45	0x3c7f48ec	0.015581351
46	0xbc7d8c38	-0.015475325
47	0xbc328508	-0.010895975
48	0x3d177be5	0.03698339
49	0x3d16341b	0.036670785
50	0xbc9ddf8a	-0.01927163
51	0x3b132880	0.002245456
52	0x3c629b04	0.013830904
53	0x3cff052a	0.031130392
54	0x3c3d6358	0.01155933
55	0xbb90bc50	-0.00441698
56	0xbd4bd16d	-0.04976027
57	0xbc9a6227	-0.01884563
58	0xbd38265d	-0.04495846
59	0xbd247935	-0.040154655
60	0xbc8abc4a	-0.016935486
61	0x3d3b05e9	0.045659933
62	0xbc96e350	-0.018418938
63	0xbc83b1e4	-0.016076036
64	0x3d08b9b1	0.033380214
65	0x3d26e9b1	0.04075021
66	0x3d1235eb	0.03569595
67	0xbd1f86ae	-0.0389468
68	0xbd330a67	-0.043711092
69	0x3c79db24	0.015250001
70	0x3d2112f9	0.039324734
71	0xbd3d9a2d	-0.04628961
72	0x3d289db3	0.04116602
73	0x3c0deb18	0.008662008
74	0x3c9697e2	0.01838297
75	0x3c12f868	0.0089703575
76	0x3cc9c52e	0.024630155
77	0xbcd160b3	-0.025558805
78	0x3b2b4f50	0.0026139803
79	0x3d480a93	0.04883821
80	0x3cb530fa	0.02211808
81	0x3d320e73	0.04347081
82	0xbcf3c750	-0.029758126
83	0xbcbc6af3	-0.023000216
84	0x3d2eb455	0.042652447
85	0x3d172eeb	0.03690998
86	0x3d35312b	0.044236343
87	0xbd193ac6	-0.037409566
88	0xbd17cd02	-0.037060745
89	0x3bff3250	0.00778798
90	0x3d092afd	0.033488262
91	0x3cdcecca	0.026968379
92	0x3d0b5661	0.034017924
93	0xbce9f6ca	-0.028560061
94	0x3c9a5912	0.0188413
95	0xbd398ffd	-0.045303334
96	0xbbdaebb0	-0.006680928
97	0xbcc1730a	-0.023614425
98	0x3d376bc9	0.044780526
99	0xbc013f48	-0.007888623
100	0x3cda67e2	0.026660863
101	0xbd097e5d	-0.033567775
102	0x3d232c9b	0.03983746
103	0xbd37c117	-0.04486188
104	0xbd28db55	-0.041224796
105	0x3c8726f2	0.016498063
106	0xbd2d2bdb	-0.042278152
107	0xbc7f63b8	-0.01558774
108	0xbc01442c	-0.007889789
109	0xbd07831e	-0.033084027
110	0x3bfa8270	0.007644944
111	0xbd02e490	-0.031956255
112	0xbceab973	-0.028652882
113	0xbc078af4	-0.008272875
114	0x3ad75f60	0.0016431622
115	0xbd3c269d	-0.045935262
116	0x3d10d925	0.035363335
117	0x3d279b29	0.040919457
118	0x3d1344a1	0.03595412
119	0xbc7e146c	-0.015507799
120	0xbc4c420c	-0.012466919
121	0xbb8aa3c0	-0.0042309463
122	0x3d1d24eb	0.038365286
123	0xbd3e13cd	-0.046405602
124	0x3d2bb855	0.04192384
125	0xbcd11903	-0.025524622
126	0x3d25e215	0.04049881
127	0xbc264474	-0.010148156
128	0xbcf7076d	-0.030154908
129	0x3d13d889	0.036095176
130	0x3d1427db	0.03617082
131	0xbb678ad0	-0.0035330541
132	0x3d19ac3f	0.037517782
133	0x3d3ec77d	0.046576966
134	0x3c0aef80	0.008479953
135	0xbc62ea0c	-0.013849746
136	0xbafbc040	-0.0019207075
137	0x3d0b5edd	0.034026016
138	0x3d15903f	0.036514517
139	0x3cc87252	0.024468575
140	0x3c8d28ba	0.017231334
141	0xbcbe526d	-0.023232663
142	0x3d456361	0.04819048
143	0x3d1f4eb1	0.038893405
144	0x3c374368	0.0111855045
145	0xbd40b48b	-0.04704718
146	0xbd16951a	-0.036763288
147	0xbd145bed	-0.03622048
148	0x3d09ba5b	0.033624988
149	0xbcf8a1c0	-0.030350566
150	0xbcaba8ca	-0.020954508
151	0x3b0d48b0	0.0021558218
152	0x3d1899c9	0.037256036
153	0x3cfd6976	0.030934077
154	0x3cd752f2	0.026284669
155	0xbd23771d	-0.039908517
156	0x3d1664f1	0.03671736
157	0x3d1aacbb	0.037762385
158	0x3cf4dfd6	0.02989189
159	0xbd3faf13	-0.046797823
160	0x3d4b36c1	0.049612764
161	0xbd164f55	-0.03669675
162	0xbcd49a6d	-0.025952542
163	0x3be56ab0	0.0070012435
164	0x3d1894d9	0.037251327
165	0x3b780520	0.0037844852
166	0xbc3e5cc8	-0.0116188
167	0xbd3c0098	-0.045899004
168	0x3cf881ee	0.030335393
169	0x3c2b4fb8	0.010456018
170	0xbd3728d5	-0.044716675
171	0x3d12ea39	0.035867903
172	0x3d217e41	0.039427046
173	0x3d352ca5	0.04423203
174	0x3d3a8839	0.04554007
175	0xbc3ff40c	-0.0117159
176	0xbc519f74	-0.012794364
177	0x3c46bd08	0.0121300295
178	0xbd1ad1ce	-0.03779774
179	0x3b1b7a60	0.0023724064
180	0x3d39d2c1	0.045367006
181	0x3d0f84af	0.035038646
182	0x3c48c908	0.012254961
183	0xbaafb300	-0.0013404787
184	0xbc2e59c8	-0.010641523
185	0xbc7f314c	-0.015575718
186	0x3c725004	0.014789585
187	0x3c1306cc	0.0089737885
188	0x3c4b7758	0.0124185905
189	0xbd389f6a	-0.045073904
190	0xbd121120	-0.035660863
191	0x3d2cf9a3	0.04223026
192	0xbcf84e53	-0.030310785
193	0x3d3cbd61	0.046079043
194	0x3ccf1bae	0.025281753
195	0xbc56ad2c	-0.013102811
196	0x3b88bce8	0.00417291
197	0xbb042a30	-0.0020166747
198	0xbcee2a9d	-0.029073054
199	0x3c1241e8	0.008926846
200	0x3c4ceb34	0.012507249
201	0x3be1bd90	0.0068890527
202	0x3cebe77a	0.0287969
203	0xbd1a0c7e	-0.03760957
204	0x3d32fe23	0.043699395
205	0xbcbbee17	-0.022940679
206	0xbcbb2aed	-0.022847617
207	0xbd3e79a3	-0.04650272
208	0x3aea2940	0.0017865077
209	0xbd0eb72d	-0.03484266
210	0x3d05fe41	0.03271318
211	0x3bf78350	0.0075534955
212	0xba3bac80	-0.00071591884
213	0x3c1a8eb8	0.009433441
214	0x3d437401	0.04771805
215	0xbd121096	-0.03566035
216	0xbc0bf938	-0.008543305
217	0xbce45800	-0.027873993
218	0xbc131f88	-0.008979686
219	0x3c66a1e4	0.014076684
220	0xbd30c5cf	-0.043157395
221	0x3c88da22	0.016705576
222	0x3cf0631e	0.029344138
223	0xbd3bc71b	-0.04584418
224	0x3ce92fee	0.028465237
225	0x3cb9ccb6	0.022680622
226	0xbd241c4e	-0.040066056
227	0xbd3e0372	-0.046390004
228	0x3d3a3b81	0.045466904
229	0x3b06b450	0.0020554252
230	0xbc4c2460	-0.012459844
231	0x3b280ea0	0.0025643483
232	0xbc047998	-0.008085631
233	0xbc0bb7b4	-0.008527685
234	0x3d343935	0.04399987
235	0xbd069610	-0.032857955
236	0xbcb86d67	-0.022513105
237	0xbb4e0a60	-0.003143929
238	0xbd224b6e	-0.039622717
239	0xbd09aec0	-0.03361392
240	0x3d390eb3	0.045180034
241	0xbd2a6476	-0.041599713
242	0x3b0249e0	0.0019880459
243	0xbc1025f8	-0.008798115
244	0x39836a80	0.00025065616
245	0x3c2e456c	0.010636669
246	0x3d435ceb	0.047696035
247	0x3c8e2f5e	0.01735657
248	0xbb954e90	-0.0045564845
249	0x3d3722f1	0.044711057
250	0x3c87cbda	0.016576696
251	0xbc0a316c	-0.008434635
252	0xbd3aa48f	-0.04556709
253	0xbbe53e58	-0.0069959573
254	0xbc580a60	-0.013186067
255	0xbb2b2ae0	-0.0026118085

linear3.weight f4 [1, 300]
0	0x3d94fe5c	0.07275078
1	0x3e0ad958	0.13559473
2	0xbda6b931	-0.08140791
3	0xbda30bc8	-0.079612315
4	0x3c210960	0.009828895
5	0x3c2931c0	0.010326803
6	0x3d826774	0.06367388
7	0xbdd664c2	-0.10468437
8	0x3b8c4c80	0.0042815804
9	0x3e09e8ee	0.13467762
10	0xbb3cb340	-0.0028793365
11	0xbb8af9a0	-0.0042411834
12	0xbd664ff4	-0.056228593
13	0x3da49842	0.080368534
14	0xbd0a87fe	-0.0338211
15	0x3dfdedd0	0.12398875
16	0x3ccebab8	0.025235519
17	0xbdad2b84	-0.084555656
18	0x3db3c2ee	0.08777414
19	0x3db7d56c	0.08976254
20	0x3cb5cae8	0.02219148
21	0xbd3cccec	-0.046093866
22	0x3df8858c	0.12134847
23	0xbd1f1ed2	-0.038847752
24	0x3bc55340	0.006021887
25	0xbd8f09de	-0.06984304
26	0xbddbf50b	-0.107400976
27	0x3c2c5700	0.010518789
28	0x3dd88cee	0.10573755
29	0xbd14137c	-0.036151394
30	0xbd2808ac	-0.041023895
31	0x3b806f20	0.003919497
32	0x3d7e9b88	0.062160045
33	0x3e0c6080	0.13708687
34	0xbda156d8	-0.07877892
35	0xbddd3c7d	-0.10802553
36	0xbd0dbdde	-0.0346049
37	0x3d417f84	0.04724075
38	0x3d53a840	0.051674128
39	0x3cef69f8	0.029225335
40	0x3e0760c0	0.13220501
41	0x3d4ce3cc	0.05002193
42	0x3c271530	0.010197923
43	0xbd3c728c	-0.046007678
44	0xbbc8b1e0	-0.00612472
45	0x3d00ca74	0.031443074
46	0x3d8ec860	0.06971812
47	0xbe070e72	-0.13189104
48	0x3d39ba38	0.045343608
49	0xbdba6a73	-0.09102335
50	0x3cbee250	0.023301274
51	0xbd1d42d4	-0.03839381
52	0xbcf4b7b8	-0.02987276
53	0x3d145384	0.03621246
54	0x3d1ad3a0	0.037799478
55	0xbdb70a93	-0.08937564
56	0x3df37fe4	0.118896276
57	0xbcd4115c	-0.025887184
58	0xbd285d20	-0.041104436
59	0xbdea997c	-0.11455056
60	0x3c80f0f8	0.015739903
61	0x3d901fd2	0.07037319
62	0x3d18ec1c	0.037334546
63	0xbdfd4387	-0.123663954
64	0xbc45a300	-0.012062788
65	0xbdd572ba	-0.10422273
66	0x3b8eae20	0.0043542534
67	0xbd273112	-0.04081828
68	0x3ceee220	0.02916056
69	0xbe04581d	-0.12924238
70	0x3d0c2814	0.03421791
71	0x3d70d5e0	0.058797717
72	0xbd2b5584	-0.0418296
73	0xbdc12eaa	-0.094327286
74	0x3e0c6562	0.1371055
75	0x3dc874a8	0.097878754
76	0xbde86118	-0.11346644
77	0xbd19a1d0	-0.037507832
78	0x3dc83f54	0.09777704
79	0xbd2ef942	-0.04271818
80	0xbcdd67d0	-0.02702704
81	0xbc804490	-0.015657693
82	0xbd0c1a88	-0.03420499
83	0x3c585af0	0.013205275
84	0x3c9bfdd8	0.01904194
85	0x3d4aeb98	0.049541086
86	0xbcf2b3b0	-0.029626697
87	0x3d394fdc	0.045242175
88	0x3c2f2d50	0.010691956
89	0x3d129f10	0.035796225
90	0xbd8111ee	-0.06302248
91	0x3c948320	0.018128932
92	0x3d663c9c	0.056210145
93	0xbd81abe0	-0.06331611
94	0x3df9175c	0.121626586
95	0xbdd45fe8	-0.10369855
96	0xbcb95e64	-0.022628017
97	0xbd44d612	-0.048055716
98	0x3e0fe678	0.1405276
99	0x3adaf080	0.0016703755
100	0x3d283e20	0.041074872
101	0xbe05a9e1	-0.13053085
102	0xbbb1bfc0	-0.0054244697
103	0xbd9423e0	-0.07233405
104	0x3e01da52	0.12680939
105	0xbce14e9c	-0.027503304
106	0xbdadda60	-0.08488917
107	0xbdad115f	-0.08450579
108	0xbdd09d0e	-0.10186206
109	0x3cb29cf0	0.02180335
110	0x3d9393ba	0.07205911
111	0xbd601476	-0.054707013
112	0x3e0da5a6	0.13832721
113	0xbe014a11	-0.1262591
114	0x3d879658	0.06620473
115	0xbba77580	-0.0051104426
116	0xbda426a3	-0.08015182
117	0xbe03ce3a	-0.12871638
118	0x3d68729c	0.056749925
119	0x3e087cfe	0.1332893
120	0xbd9bff1a	-0.07617016
121	0xbd7bff62	-0.06152285
122	0xbda95596	-0.08268277
123	0xbd650618	-0.055914015
124	0xbdaf86b3	-0.08570614
125	0x3c13a260	0.009010881
126	0xbe01e46e	-0.12684795
127	0xbc5260d0	-0.012840465
128	0xbd561ad8	-0.052271694
129	0x3e05a7f4	0.1305235
130	0xbd80c13c	-0.062868565
131	0x3db82dce	0.089931116
132	0x3d0c94e4	0.03432168
133	0xbccc1cd0	-0.024916083
134	0xbc102190	-0.008797064
135	0xbc37b250	-0.011211947
136	0xbc8ffccc	-0.017576598
137	0xbd0b3862	-0.033989318
138	0x3e0d3566	0.13789901
139	0xbdfb34a8	-0.12265903
140	0xbd23af9e	-0.039962403
141	0xbdd52e6e	-0.104092464
142	0xbc1d0560	-0.009583801
143	0x3d6f22dc	0.058382854
144	0x3da88760	0.08228946
145	0x3ce296c0	0.027659774
146	0x3d158c80	0.036510944
147	0xbd9ae72a	-0.07563622
148	0x3d565230	0.052324474
149	0x3d88054c	0.06641635
150	0x3df07800	0.11741638
151	0xbe0f716d	-0.14008112
152	0x3daa1238	0.08304256
153	0xbd4c85d6	-0.049932323
154	0xbd8b6754	-0.06806818
155	0x3d8b12b2	0.06790675
156	0x3dfb3f24	0.122679025
157	0x3e0a1550	0.13484693
158	0xb98f6400	-0.0002734959
159	0xbce5f504	-0.028070934
160	0xbdd43ca6	-0.1036313
161	0x3d2cafa8	0.042159706
162	0x3d313770	0.04326576
163	0xbd9fba16	-0.07799165
164	0x3e0180fc	0.1264686
165	0x3ce6fa78	0.028195605
166	0x3da30072	0.07959069
167	0x3d9ab9e6	0.075549886
168	0x3c7649a0	0.015032202
169	0x3baeebc0	0.005338162
170	0xbe0cbf5e	-0.13744876
171	0x3da400b6	0.08007948
172	0x3d334204	0.04376413
173	0x3e100136	0.14062962
174	0xbc54e830	-0.012994811
175	0xbd8f2aea	-0.06990607
176	0x3d9dbc4e	0.07701932
177	0x3dc15046	0.09439139
178	0x3d7acff4	0.061233476
179	0xbd21493e	-0.03937649
180	0x3d8290b6	0.06375258
181	0x3da1dd1c	0.079035014
182	0xbde48262	-0.11157681
183	0xbd5c2394	-0.053744867
184	0x3dc52a28	0.09627181
185	0x3d70cc8c	0.05878882
186	0xbd2b09e4	-0.04175748
187	0xbd63fcae	-0.055660896
188	0xbdbcdb18	-0.09221476
189	0x3de55c34	0.11199227
190	0xbde883d1	-0.11353267
191	0x3df2c66c	0.11854252
192	0x3dfac4f4	0.12244597
193	0xbd0a33f8	-0.033740968
194	0xbd78bab2	-0.06072492
195	0x3c8ff550	0.017573029
196	0x3df4af34	0.1194748
197	0x3db42bfe	0.08797453
198	0x3ccfdde0	0.025374353
199	0xbdddbe5f	-0.10827326
200	0xbd820232	-0.06348075
201	0x3dc51542	0.09623195
202	0xbd77b148	-0.060471803
203	0xbd8df7fa	-0.069320634
204	0xbdca83b6	-0.09888403
205	0xbe06695d	-0.1312613
206	0x3d497ec8	0.049193174
207	0xbdf27906	-0.1183949
208	0x3a283e00	0.000641793
209	0xbc5cfb80	-0.013487697
210	0xbda80768	-0.08204538
211	0xbd92d49f	-0.071694605
212	0x3e0f2e0a	0.13982406
213	0xbdfa0c28	-0.1220935
214	0x3d0b86dc	0.03406416
215	0xbbc595c0	-0.0060298145
216	0x3b12f280	0.0022422373
217	0xbd71b3f2	-0.0590095
218	0x3da27a08	0.07933432
219	0xbd8e27d7	-0.069411926
220	0x3dfe271c	0.12409803
221	0xbd303774	-0.043021634
222	0xbd71e93e	-0.059060328
223	0xbd9c491a	-0.076311305
224	0xbd2bbf5a	-0.041930534
225	0xbd82e9a9	-0.063922234
226	0xbe06e9db	-0.13175146
227	0xbdee26f2	-0.11628522
228	0x3dfa7a30	0.12230337
229	0xbd164f60	-0.03669679
230	0xbe0ba1ae	-0.13635895
231	0xbc58bbc0	-0.013228357
232	0xbd5a157c	-0.053243145
233	0x3ddd711e	0.10812591
234	0x3dd4cffc	0.10391232
235	0x3ba8b920	0.0051490217
236	0xbde7d2f4	-0.11319533
237	0x3d702874	0.05863233
238	0x3d38c3b0	0.045108497
239	0xbcb91b80	-0.02259612
240	0xbcacc4ec	-0.021089993
241	0xbd2cca9e	-0.04218542
242	0x3d95d036	0.07315104
243	0xbdc749be	-0.09730862
244	0x3d55cb28	0.052195698
245	0xbe0327b6	-0.12808117
246	0x3bfdc4a0	0.007744387
247	0xbcb17618	-0.021662757
248	0xbd82db9d	-0.06389544
249	0xbb642880	-0.003481418
250	0xbdd143f0	-0.10218036
251	0xbdf5c83b	-0.120010816
252	0x3ccabc00	0.024747849
253	0xbd2e0d0e	-0.04249292
254	0xbd80b9f6	-0.06285469
255	0xbd52c8d6	-0.051461063
