RL/Realization/DDPG/best_model_pendulum.pkl (torch_old, 489891 bytes, 5 tensors)

linear1.weight f4 [400, 3]
-0.09040901 -0.0067386106 -0.09938017 -0.11612238 -0.05468063 -0.05679603 -0.08482116 -0.05908318
-0.030913994 0.027731992 0.016743131 0.056142397 0.11025784 0.06375796 0.043871216 0.087085925
0.007881634 -0.07251046 -0.04232301 -0.033349082 -0.030728608 -0.10560445 -0.031324193 0.04057931
-0.040591083 -0.112105675 -0.08224566 0.016637452 0.086315356 0.026911117 0.09907173 -0.057933792
0.077155 0.09074656 -0.03476286 0.01734849 0.009089299 -0.03863456 -0.05220397 -0.049625024
-0.0026497245 0.008412398 -0.091189355 0.07930321 -0.11358383 0.076650776 -0.08788335 -0.03498417
0.05137316 -0.09811775 0.0006132722 0.029008113 -0.022387333 0.027908303 0.024217121 0.013967924
-0.03610064 0.12004959 0.07277981 0.01608733 -0.012010083 0.042301573 0.114119 0.045122094
-0.04701353 0.05021154 -0.019264862 -0.11847425 0.058501847 -0.06682274 0.0729058 0.03867007
0.012159996 0.06669054 -0.039047733 -0.057824686 -0.04007791 0.0069281682 0.08900268 -0.016005248
-0.019106805 -0.09924858 0.105991416 -0.09480288 0.042734228 0.011085592 0.060212918 0.09977826
-0.11525442 0.07888866 0.044348784 0.041617148 -0.0436571 0.076027654 0.043301545 0.109794565
0.061021097 -0.08223674 -0.018364891 0.10458278 0.10479357 -0.028716758 0.023497157 -0.06858408
-0.12012776 0.10144543 -0.08594926 0.1087166 -0.03641049 0.05371844 -0.06273554 0.09575542
0.049476378 -0.037771873 -0.10672924 -0.08779554 0.09768512 0.11927556 0.1208326 0.090401284
-0.07240398 -0.043615475 0.03364923 -0.028448835 -0.057453886 -0.04890749 0.012421496 -0.0699516
0.041020863 -0.018846296 -0.02869562 0.017493151 0.09652079 -0.046975374 -0.03463582 0.054141767
0.072466545 0.049082242 0.06038492 -0.005588472 0.09722788 0.11595742 0.03463147 0.046715505
-0.02368538 0.019789733 0.040615134 0.06067603 -0.019300349 -0.06540714 0.120987885 0.049456783
-0.04924748 0.06893369 0.058751725 -0.019600555 -0.10743497 0.10332493 0.030070223 0.06006647
0.035282053 -0.054654792 -0.06665444 0.043197803 -0.09807764 0.10115329 0.029878609 -0.022932708
0.07228615 0.07665641 -0.028904177 0.05700224 -0.022783175 0.07882627 -0.121394515 0.102620594
0.0013500378 0.056382142 0.0064990744 0.032572232 -0.001932621 0.087698855 -0.044904187 0.07210655
0.07105603 0.03092023 -0.07574346 0.051185213 -0.11191814 0.0014019087 -0.087275006 -0.06534125
0.09225901 -0.0266577 0.045529418 -0.007903978 -0.086287245 0.06946518 -0.10170249 -0.020578332
0.012198232 -0.118712775 0.07744563 0.099152975 0.12185288 0.09127205 0.11056691 -0.104346335
-0.09329 0.023617812 -0.009189911 -0.039460666 -0.12189459 -0.003126882 0.0020132065 0.10880474
0.12125159 -0.051149935 -0.046034038 0.0032258257 0.037203602 -0.004437633 0.048927285 0.071497224
0.04542289 -0.041818753 0.021521159 -0.116282314 0.07644076 -0.011996426 -0.10426971 0.095910676
-0.037429415 0.080186225 -0.11942222 0.1076402 -0.05247031 0.04296469 0.041641794 -0.02845946
-0.026087001 0.09735959 -0.09408355 -0.11755241 -0.061495252 -0.08963363 0.07554767 -0.057335705
-0.0068029314 0.0745739 0.12191606 -0.023908503 -1.2539327e-05 -0.12177119 0.1077592 0.064793535
00000000: 5c28 b9bd 90cf dcbb d587 cbbd 92d1 edbd
00000010: ccf8 5fbd f4a2 68bd b7b6 adbd 3401 72bd
00000020: 583f fdbc 342e e33c e428 893c 92f5 653d
00000030: ddce e13d 8993 823d 4eb2 333d 1b5a b23d
00000040: f821 013c 5d80 94bd e45a 2dbd 0c99 08bd
00000050: 90ba fbbc 2547 d8bd cc4d 00bd 7e36 263d
00000060: d642 26bd a997 e5bd 6a70 a8bd 444b 883c
00000070: 1bc6 b03d b474 dc3c 1fe6 ca3d fc4b 6dbd
00000080: 7103 9e3d 55d9 b93d 8063 0ebd 6c1e 8e3c
00000090: 48eb 143c 463f 1ebd d4d3 55bd 9c43 4bbd
000000a0: 00a7 2dbb 28d4 093c 7cc1 babd b969 a23d
000000b0: a49e e8bd 15fb 9c3d 30fc b3bd 904b 0fbd
000000c0: aa6c 523d f5f1 c8bd 00c4 203a 6ca2 ed3c
000000d0: a465 b7bc f49f e43c fc62 c63c b8d9 643c
000000e0: 44de 13bd 8fdc f53d 950d 953d 94c9 833c
000000f0: f0c5 44bc 6a44 2d3d 39b7 e93d f2d1 383d
00000100: 4291 40bd 9eaa 4d3d 58d1 9dbc a1a2 f2bd
00000110: a29f 6f3d 5cda 88bd a34f 953d 8264 1e3d
00000120: b83a 473c 0d95 883d 84f0 1fbd 94d9 6cbd
00000130: bc28 24bd b005 e33b 0947 b63d 701d 83bc
00000140: e085 9cbc d742 cbbd 0712 d93d 0328 c2bd
00000150: 160a 2f3d 58a0 353c d2a1 763d 8b58 cc3d
00000160: 820a ecbd 6190 a13d 12a7 353d be76 2a3d
00000170: cad1 32bd 63b4 9b3d f65c 313d f9db e03d
00000180: 42f1 793d bc6b a8bd f871 96bc 7f2f d63d
00000190: 039e d63d 683f ebbc 1c7d c03c cf75 8cbd
000001a0: 8b05 f6bd 9fc2 cf3d 2a06 b0bd cfa6 de3d
000001b0: 2a23 15bd de07 5c3d 7e7b 80bd 6b1b c43d
000001c0: bea7 4a3d aeb6 1abd dc94 dabd 26ce b3bd
000001d0: 230f c83d bf46 f43d 1577 f73d 4f24 b93d
000001e0: 8a48 94bd 24a6 32bd c6d3 093d 880d e9bc
000001f0: c454 6bbd 3853 48bd 8883 4b3c c942 8fbd
00000200: 7e05 283d 8c63 9abc 1413 ebbc cc4d 8f3c
00000210: b1ac c53d 4069 40bd 4ade 0dbd c2c3 5d3d
00000220: 5769 943d 760a 493d 2e56 773d 801f b7bb
00000230: 691f c73d 157b ed3d bad9 0d3d c258 3f3d
00000240: d807 c2bc 141e a23c 0e5c 263d 6e87 783d
00000250: c41b 9ebc 2ef4 85bd 7fc8 f73d 3293 4a3d
00000260: bab7 49bd 1b2d 8d3d a6a5 703d 5891 a0bc
00000270: de06 dcbd 059c d33d d455 f63c 4208 763d
00000280: ea83 103d b4dd 5fbd 1f82 88bd 2ef0 303d
00000290: eedc c8bd 7529 cf3d fcc3 f43c 60dd bbbc
000002a0: c30a 943d 09fe 9c3d 74c8 ecbc 2e7b 693d
000002b0: c8a3 babc ab6f a13d b09d f8bd bf2a d23d
000002c0: c0f3 b03a f6f0 663d 30f6 d43b 766a 053d
000002d0: 0050 fdba 759b b33d 74ed 37bd 99ac 933d
000002e0: d385 913d 6c4c fd3c 631f 9bbd 96a7 513d
000002f0: 5635 e5bd 40c0 b73a 3dbd b2bd a2d1 85bd
00000300: 4bf2 bc3d 4061 dabc 0e7d 3a3d b07f 01bc
00000310: 5eb7 b0bd c343 8e3d 6549 d0bd e493 a8bc
00000320: 18db 473c af1f f3bd d19b 9e3d b710 cb3d
00000330: 018e f93d d7ec ba3d e770 e23d 88b3 d5bd
00000340: d40e bfbd 247a c13c 4891 16bc 82a1 21bd
00000350: dfa3 f9bd 60ec 4cbb 00f0 033b 05d5 de3d
00000360: c152 f83d 9882 51bd 308e 3cbd 6068 533b
00000370: ce62 183d 9069 91bb fa67 483d 236d 923d
00000380: 5a0d 3a3d 244a 2bbd 244d b03c 6c25 eebd
00000390: f98c 9c3d a88c 44bc 5c8b d5bd d16c c43d
000003a0: 964f 19bd ad38 a43d a393 f4bd 7772 dc3d
000003b0: 1ceb 56bd befb 2f3d 9690 2a3d d023 e9bc
000003c0: 68b4 d5bc 7764 c73d e0ae c0bd 51bf f0bd
000003d0: 72e2 7bbd d691 b7bd bdb8 9a3d d8d8 6abd
000003e0: 20eb debb 33ba 983d 21af f93d c4db c3bc
000003f0: 0060 52b7 2c63 f9bd dbb0 dc3d 79b2 843d

linear1.bias f4 [400]
0.53473747 0.20295 0.41210365 0.03548211 -0.4020918 -0.47220683 0.035429418 0.42103732
0.09926361 -0.0043523908 -0.27846953 0.49637747 0.07929021 -0.20353281 0.07454312 0.1271053
0.43369174 -0.3663269 -0.31923366 0.35873854 0.038182497 -0.18444082 -0.3764094 -0.2255154
0.4382125 -0.22348878 -0.5334493 -0.103381425 0.32547694 0.47879696 0.42278242 -0.5023884
0.048575997 -0.16738185 -0.43743962 0.24002212 0.5140344 -0.053673744 0.06665599 0.30716276
-0.13211992 0.13025582 0.21102136 -0.12039152 0.078188896 -0.2437442 0.24368376 -0.54646605
0.24635422 -0.56914204 0.20988876 -0.4521079 0.29853445 -0.55838305 0.30040097 0.15201366
0.2746988 0.40809005 0.42198336 -0.21023214 0.15056539 -0.08875236 0.12318796 -0.028660595
-0.045029104 -0.33517504 0.5493032 -0.12482545 0.48017323 -0.11894205 -0.03127581 0.3389007
0.42797923 0.48377824 -0.107272685 -0.15861756 -0.5236558 0.54957354 -0.36268288 -0.13888466
-0.11960682 0.04863 0.35936457 0.16286105 -0.18630502 0.32572985 0.3768645 -0.048158884
-0.25766215 -0.5135443 -0.49298325 -0.007733226 -0.3797047 0.124818385 -0.124858856 0.05278468
-0.56461304 0.5377649 -0.18571222 0.32572466 -0.31617045 0.16770732 0.47397327 -0.31061816
0.41691744 0.38837487 -0.21044412 0.18985063 0.57515097 -0.30183733 -0.13897234 0.5426594
-0.08621779 0.40441453 -0.2316176 -0.46116138 0.47962916 0.11030805 -0.008283913 -0.3028205
-0.2736634 -0.45014971 -0.41102874 -0.14108452 -0.16779199 0.37250376 0.15340358 0.5353116
0.48069978 0.07705408 0.13325405 0.43627203 -0.5630042 0.23443717 -0.5327329 -0.51094174
-0.18514875 0.55839753 -0.17674166 -0.1881232 -0.52867526 0.15294838 -0.24266425 -0.13614374
-0.44190407 -0.07470149 0.35686427 0.10294515 0.2891757 0.524464 -0.087907106 -0.056731105
0.09966278 -0.43632507 0.12288821 -0.33343816 0.2386828 0.4124822 -0.014134705 0.4926951
0.38656068 0.5351049 0.37724984 0.5652193 -0.071133494 0.5167177 -0.26561067 0.19342577
0.08000761 0.50568366 -0.4001865 -0.23735759 -0.28951707 0.44473875 0.4128669 0.2868799
0.18316793 -0.44692737 0.20195234 -0.53030807 -0.24650973 0.34584963 0.104670525 -0.4724553
0.53894484 -0.1190294 -0.364798 -0.45660815 0.52514064 0.34921682 -0.43035507 -0.2074796
-0.19656965 0.25949228 0.35759783 0.12459582 0.09072888 0.4251907 0.57246923 -0.51775867
0.28799105 -0.56001014 0.25106245 0.15993035 -0.04703468 0.3415724 0.30692607 -0.1975277
0.55712867 0.08737397 -0.57129383 0.31426936 0.45588446 0.41499037 -0.55954397 -0.05843556
-0.4491462 -0.03458196 0.52884567 -0.022994995 -0.03927219 0.05552703 -0.53163815 -0.47077602
-0.4356931 0.065333724 -0.051292956 -0.41097498 -0.51112 -0.38281253 -0.18749702 -0.52424204
-0.37857455 0.018307328 -0.36519855 -0.23487774 -0.55138427 -0.13404933 -0.15629062 -0.5217945
-0.20990682 0.24126965 -0.03744203 0.2389065 -0.2705334 0.07342833 0.36712033 0.036699474
0.08355671 0.14093637 0.09043747 -0.44356316 0.3157413 0.0725863 -0.37958068 0.053434134
00000000: 8ee4 083f 20d2 4f3e 40ff d23e b055 113d
00000010: fade cdbe 18c5 f1be 701e 113d 3492 d73e
00000020: b84a cb3d 809e 8ebb 8f93 8ebe 3025 fe3e
00000030: e862 a23d e86a 50be 10aa 983d e427 023e
00000040: d80c de3e 338f bbbe 9872 a3be 94ac b73e
00000050: 4065 1c3d 0ede 3cbe bcb8 c0be 82ed 66be
00000060: 645d e03e 3eda 64be 2290 08bf a4b9 d3bd
00000070: eaa4 a63e e024 f53e f076 d83e 879c 00bf
00000080: a0f7 463d 2666 2bbe 16f8 dfbe 5cc8 753e
00000090: c297 033f 00d9 5bbd f082 883d 7044 9d3e
000000a0: 724a 07be c861 053e fc15 583e d48f f6bd
000000b0: 8021 a03d 1498 79be 3c88 793e 33e5 0bbf
000000c0: 4844 7c3e 4bb3 11bf 14ed 563e b07a e7be
000000d0: 82d9 983e 31f2 0ebf 28ce 993e 78a9 1b3e
000000e0: 52a5 8c3e 2ef1 d03e 340e d83e 1847 57be
000000f0: d02d 1a3e ccc3 b5bd f849 fc3d a0c9 eabc
00000100: 7070 38bd 109c abbe 229f 0c3f 7ca4 ffbd
00000110: 44d9 f53e e497 f3bd 101b 00bd 6484 ad3e
00000120: 1820 db3e c8b1 f73e c8b1 dbbd a46c 22be
00000130: 4e0e 06bf dab0 0c3f 92b1 b9be c837 0ebe
00000140: 6cf4 f4bd 4030 473d a2fe b73e 0cc5 263e
00000150: bec6 3ebe 10c6 a63e 62f4 c03e 4042 45bd
00000160: 4bec 83be a477 03bf 4d68 fcbe 0067 fdbb
00000170: a868 c2be c8a0 ff3d 00b6 ffbd c034 583d
00000180: 7b8a 10bf f6aa 093f 582b 3ebe 62c5 a63e
00000190: 18e1 a1be 78bb 2b3e a0ac f23e 5809 9fbe
000001a0: 3476 d53e 12d9 c63e aa7e 57be 3468 423e
000001b0: 183d 133f 6c8a 9abe c44e 0ebe baeb 0a3f
000001c0: f492 b0bd 6c0f cf3e 2a2d 6dbe 581d ecbe
000001d0: f491 f53e 30e9 e13d 40b9 07bc 4a0b 9bbe
000001e0: 9c1d 8cbe 067a e6be 5c72 d2be 7678 10be
000001f0: aad1 2bbe d0b8 be3e d415 1d3e 2e0a 093f
00000200: 481e f63e 88ce 9d3d c073 083e 0c5f df3e
00000210: 0b21 10bf 4c10 703e 2f61 08bf 14cd 02bf
00000220: a297 3dbe 24f3 0e3f c4fb 34be 5ea3 40be
00000230: 4357 07bf 809e 1c3e fa7c 78be 4469 0bbe
00000240: 4041 e2be 18fd 98bd eab6 b63e e8d4 d23d
00000250: d60e 943e 4643 063f a408 b4bd e05e 68bd
00000260: 001c cc3d 0066 dfbe d0ac fb3d 68b8 aabe
00000270: 4469 743e de30 d33e 4095 67bc 8842 fc3e
00000280: 48eb c53e a2fc 083f e426 c13e 36b2 103f
00000290: 70ae 91bd 9c47 043f 1ffe 87be 6811 463e
000002a0: 08db a33d 7c74 013f 3fe5 ccbe de0d 73be
000002b0: 953b 94be ccb4 e33e 4a63 d33e ece1 923e
000002c0: 6090 3b3e aad3 e4be 98cc 4e3e 45c2 07bf
000002d0: 0c6d 7cbe 3413 b13e 805d d63d a9e5 f1be
000002e0: 4af8 093f b0c5 f3bd cec6 babe 8bc8 e9be
000002f0: 9e6f 063f 8ccc b23e 8057 dcbe 8875 54be
00000300: 8e49 49be 2cdc 843e 1017 b73e 182c ff3d
00000310: 10d0 b93d 98b2 d93e 588d 123f d58b 04bf
00000320: 9073 933e d35c 0fbf 428b 803e c8c4 233e
00000330: 70a7 40bd 94e2 ae3e 6a25 9d3e b444 4abe
00000340: fc9f 0e3f 20f1 b23d 5040 12bf eae7 a03e
00000350: b069 e93e 9e79 d43e 463e 0fbf 205a 6fbd
00000360: 7ef6 e5be d0a5 0dbd 6e62 073f 0060 bcbc
00000370: e0db 20bd 5070 633d 7019 08bf 8e09 f1be
00000380: 2a13 dfbe b0cd 853d 9018 52bd 506b d2be
00000390: c3d8 02bf 0100 c4be 38ff 3fbe ba34 06bf
000003a0: 86d4 c1be 40f9 953c 4efb babe ca83 70be
000003b0: 8527 0dbf 3a44 09be a60a 20be 5394 05bf
000003c0: d0f1 56be 640f 773e d05c 19bd e8a3 743e
000003d0: 5b83 8abe 9861 963d 32f7 bb3e 3052 163d
000003e0: c81f ab3d a051 103e 4837 b93d b61a e3be
000003f0: d8a8 a13e 20a8 943d 6658 c2be c0dd 5a3d

linear2.weight f4 [300, 400]
0.054560937 0.060719304 0.03908194 -0.056785367 -0.02047658 0.0019409806 -0.076565094 -0.06309594
0.008658826 0.051201724 -0.0899491 -0.06619232 -0.088529654 0.06540353 -0.07213499 -0.059180822
-0.05091146 -0.0012368187 0.010671675 0.0066649914 0.044232138 -0.046211816 -0.050253432 0.05658988
0.012155555 0.012195133 0.02179391 -0.04161082 0.044237547 -0.05963674 0.019750841 0.04871326
0.028135493 -0.016780443 -0.04110935 -0.023688152 -0.030001163 0.019939236 0.042437337 0.045273624
-0.005833216 -0.064888835 0.085351564 -0.079801165 0.05711905 -0.013000064 -0.083633505 0.039102115
-0.010784082 0.084558345 0.044621713 0.022904791 -0.063917756 0.019608758 -0.0007355511 -0.048624247
0.053149708 -0.03907204 -0.022381373 -0.0036784858 0.0017864034 0.031670198 0.008675657 -0.07528722
-0.042742185 -0.03530027 -0.018383496 0.088405795 0.046181507 0.053659312 0.0024103895 0.0016425028
-0.07020749 0.08807667 0.048630692 0.08289953 -0.022360116 0.033901967 0.04154522 0.029297635
0.0488104 -0.011476345 -0.037804186 0.08616372 0.08263201 -0.08850314 0.0072638243 0.053272508
-0.017710999 -0.020252578 0.059287034 -0.06435671 -0.0848412 -0.050435152 -0.046426967 -0.03566927
0.04611761 0.07039807 -0.07174286 -0.0357618 -0.03899792 0.08522572 -0.07374584 -0.05403283
0.012895271 -0.07122317 -0.09204008 -0.08499132 0.040682204 -0.023782626 -0.053983174 -0.048224248
-0.031421512 0.005035341 0.0021219999 0.022841059 -0.027193233 0.07765048 -0.079840116 -0.01220686
0.064877234 0.0060713887 -0.033054866 0.0061699897 0.06281128 -0.014739029 0.0705772 0.038576134
-0.07176512 0.021049015 0.0678234 -0.033603333 -0.08976784 -0.07762466 0.06988365 0.009708762
-0.0044693053 -0.035560537 0.049225174 0.08863283 0.085552804 -0.05319271 0.018690586 -0.025795795
0.08863657 0.006134525 -0.020225212 0.0025521144 -0.058175486 0.06036777 -0.09237087 -0.026948199
0.012657963 -0.07352795 0.07652717 -0.031056762 -0.046293456 -0.00031270087 -0.026104137 -0.07953411
0.056554712 -0.06491352 0.015794113 0.025091723 0.055185877 0.07914353 -0.020348772 0.03965465
-0.013103083 0.034161277 -0.05438768 0.02191741 -0.021810532 -0.080036744 0.022838376 0.09099048
-0.08942503 0.08389952 -0.037793368 -0.06597439 -0.02088321 -0.057321616 -0.03749793 -0.0637075
-0.049979594 0.07491089 -0.0018500015 0.023176119 -0.060153592 -0.041363556 0.076358266 -0.05518436
0.0082418695 -0.0717601 0.038986005 0.0153234005 0.088706784 0.06060546 -0.014944136 -0.0197099
-0.07169023 0.07302355 -0.059478592 0.086990304 0.016805254 -0.036650945 -0.065151855 -0.038863063
0.022312365 0.009392157 -0.080330834 0.07911038 0.074592344 0.003446199 -0.08965832 -0.06499747
-0.08993023 0.0720697 -0.025626294 -0.056028705 0.017016448 0.025356956 -0.066900276 0.008732118
0.04684209 -0.02226755 -0.02734182 -0.06435411 0.067362465 0.058107994 -0.06904443 -0.06682125
-0.07865914 -0.06081176 -0.028738417 0.06460854 -0.054865323 -0.038164973 -0.0618504 0.04083834
-8.1054866e-05 0.08277594 0.0060845166 -0.077771135 -0.05966585 0.065306254 0.03568744 0.08493871
-0.033174857 -0.008517526 -0.080160946 0.06763478 0.034914874 -0.03254214 0.08372303 0.011521682
00000000: 4a7b 5f3d ceb4 783d 6214 203d c697 68bd
00000010: 80be a7bc 8068 fe3a 29ce 9cbd 7238 81bd
00000020: c0dd 0d3c e6b8 513d 3c37 b8bd d78f 87bd
00000030: 094f b5bd 49f2 853d 82bb 93bd 9767 72bd
00000040: 8988 50bd c01c a2ba 40d8 2e3c 0066 da3b
00000050: c22c 353d 9a48 3dbd 8bd6 4dbd caca 673d
00000060: 1828 473c 18ce 473c 2489 b23c 1b70 2abd
00000070: 6e32 353d a745 74bd 84cc a13c 8e87 473d
00000080: 687c e63c 2477 89bc 4762 28bd a80d c2bc
00000090: 00c5 f5bc 9c57 a33c c6d2 2d3d d670 393d
000000a0: 9024 bfbb 70e4 84bd cdcc ae3d cb6e a3bd
000000b0: aaf5 693d 38fe 54bc 0b48 abbd 8a29 203d
000000c0: b8af 30bc ed2c ad3d 42c5 363d d4a2 bb3c
000000d0: 50e7 82bd 8ca2 a03c 00d2 40ba 382a 47bd
000000e0: 82b3 593d 010a 20bd 2459 b7bc c012 71bb
000000f0: c025 ea3a 9cb8 013d 5824 0e3c 3030 9abd
00000100: 6e12 2fbd 0497 10bd fc98 96bc 190e b53d
00000110: d228 3d3d dec9 5b3d a0f7 1d3b 4049 d73a
00000120: f2c8 8fbd 8b61 b43d fa30 473d 3bc7 a93d
00000130: 902c b7bc cadc 0a3d 522b 2a3d 9801 f03c
00000140: 6aed 473d 4807 3cbc 90d8 1abd 9b76 b03d
00000150: f93a a93d 2241 b5bd 6005 ee3b 4634 5a3d
00000160: a816 91bc bce8 a5bc f6d6 723d 73cd 83bd
00000170: 39c1 adbd 1795 4ebd 342a 3ebd f119 12bd
00000180: d2e5 3c3d dd2c 903d eced 92bd f77a 12bd
00000190: 48bc 1fbd d38a ae3d 0f08 97bd 8751 5dbd
000001a0: b046 533c 74dd 91bd 827f bcbd ee0f aebd
000001b0: 62a2 263d c8d3 c2bc 761d 5dbd ca86 45bd
000001c0: d8b3 00bd 80ff a43b 4011 0b3b 2c1d bb3c
000001d0: 58c4 debc 3707 9f3d 3783 a3bd 48ff 47bc
000001e0: 5bde 843d 80f2 c63b 8a64 07bd a02d ca3b
000001f0: 33a3 803d f87b 71bc c78a 903d 0202 1e3d
00000200: 97f9 92bd fc6e ac3c ffe6 8a3d a6a3 09bd
00000210: 34d8 b7bd aef9 9ebd 291f 8f3d 8011 1f3c
00000220: 4073 92bb eda7 11bd 56a0 493d 2185 b53d
00000230: 4f36 af3d 99e0 59bd 001d 993c b451 d3bc
00000240: 1787 b53d 2004 c93b 58af a5bc 6041 273b
00000250: 6b49 6ebd 3244 773d f02c bdbd 78c2 dcbc
00000260: 5863 4f3c d295 96bd 47ba 9c3d c06a febc
00000270: 359e 3dbd 00f2 a3b9 58d8 d5bc c8e2 a2bd
00000280: eaa5 673d 61f1 84bd a862 813c 288d cd3c
00000290: 960a 623d 0116 a23d 78b2 a6bc ea6c 223d
000002a0: 50ae 56bc b2ec 0b3d 9ec5 5ebd 248c b33c
000002b0: 00ac b2bc 4eea a3bd 8c17 bb3c 3759 ba3d
000002c0: 7824 b7bd 83d3 ab3d 38cd 1abd 951d 87bd
000002d0: 4413 abbc 12ca 6abd 6e97 19bd 1479 82bd
000002e0: 67b7 4cbd e16a 993d c07b f2ba d8db bd3c
000002f0: 9d63 76bd d56c 29bd b961 9c3d ff08 62bd
00000300: e808 073c f6f6 92bd caaf 1f3d 000f 7b3c
00000310: e7ab b53d 6e3d 783d 40d8 74bc a876 a1bc
00000320: 54d2 92bd 5f8d 953d d39f 73bd f927 b23d
00000330: 2cab 893c 4d1f 16bd 566e 85bd e02e 1fbd
00000340: 6cc8 b63c 90e1 193c 7e84 a4bd 9f04 a23d
00000350: dfc3 983d a0d9 613b c89e b7bd 651d 85bd
00000360: 572d b8bd 4799 933d 3cee d1bc 5b7e 65bd
00000370: 1466 8b3c 64b9 cf3c 0303 89bd 2811 0f3c
00000380: 7edd 3f3d 706a b6bc f4fb dfbc 16cc 83bd
00000390: 55f5 893d a602 6e3d 2b67 8dbd 94d9 88bd
000003a0: 0b18 a1bd c115 79bd d46c ebbc 7b51 843d
000003b0: 76ba 60bd e052 1cbd d856 7dbd 1a46 273d
000003c0: 00fc a9b8 6f86 a93d a060 c73b 7946 9fbd
000003d0: 2e64 74bd 49bf 853d fe2c 123d 59f4 ad3d
000003e0: 5ce2 07bd 188d 0bbc 6c2b a4bd 1b84 8a3d
000003f0: e602 0f3d e84a 05bd fb76 ab3d 70c5 3c3c

linear2.bias f4 [300]
-0.033709437 4.1287392e-05 0.015004251 -0.032645226 0.009958785 0.0045051947 -0.035911273 -0.0152160935
-0.04387073 0.033414993 0.04825334 -0.049155075 -0.024229044 -0.0013096035 -0.016306896 -0.010485906
-0.036728688 0.024627026 0.036512647 0.0052241273 0.03910363 0.033057433 0.0033619218 0.018072996
-0.04130401 -0.00023800135 -0.027417874 -0.0016720593 0.02798726 -0.008153308 -0.022488344 -0.016811479
0.048011582 0.00983569 0.025640395 0.02100603 -0.009279948 0.03397351 -0.031564735 0.046497855
-0.005939223 0.03396607 0.04854733 0.017974947 -0.00573837 0.009254485 0.045886282 -0.03325354
0.039008547 -0.024490137 -0.047536682 0.023155492 -0.0024999455 -0.042692598 0.0031622946 0.03561977
0.024496067 0.0020191185 -0.022184957 -0.016259294 -0.006991811 0.027217817 0.00341326 -0.009508975
-0.034721393 0.045230072 -0.021147043 -0.0356225 0.034929354 0.03900579 -0.013746493 -0.025082946
-0.016908936 0.0004479885 -0.035749305 -0.0033284724 0.047913443 0.046598587 -0.017633386 -0.03260617
0.029190462 -0.047096927 -0.039590716 0.0013347976 -0.013322908 -0.021066327 0.03521769 -0.038209658
-0.04605183 0.040441986 0.031394478 -0.021520132 0.041444574 -0.009373616 0.044830848 0.02550419
0.025805626 0.028329235 -0.034768336 -0.020990456 0.00990957 0.047654208 0.04899088 0.032690186
-0.028672546 -0.02755909 -0.00042866543 0.008550309 0.020057742 -0.0124284215 0.02715436 0.043547403
0.0012616292 -0.030949181 0.009743292 0.008590203 0.046122584 -0.045597054 -0.004604347 0.03483249
0.01630364 -0.0014819093 -0.042034738 0.024931107 0.03134161 -0.027886003 -0.025816143 0.0145666115
0.027291182 -0.038327556 -0.004559476 -0.023772253 0.047809582 -0.009875804 0.009695552 -0.0031126253
-0.047288395 0.020226445 0.033027623 0.043141622 0.03607196 0.04913911 -0.012653939 -0.04952496
-0.0074910335 -0.012014441 -0.02904374 -0.026906604 0.043758664 0.044058476 -0.01432829 0.034801733
-0.005838793 -0.0175398 -0.012855358 0.037778314 0.021920469 0.02898528 -0.02002557 -0.034407258
0.032993484 -0.012518752 -0.017653089 -0.023387706 -0.029567761 0.04730342 0.01628435 -0.032286637
-0.046054777 0.046365503 -0.008584458 -0.00879823 -0.00080611184 0.010285467 0.0035632625 0.04050212
-0.029755175 -0.025559003 0.035599206 0.045369234 -0.010908745 -0.033988804 0.036189977 0.028783623
-0.03776113 -0.009589661 -0.004387833 -0.04457542 0.032378953 -0.0020226948 -0.0011022612 0.030167166
-0.016745128 0.015491728 0.017846864 0.0051280856 -0.049951114 -0.008925416 0.029429931 0.0123459175
0.000580132 0.003469389 -0.041821152 -0.04867033 0.044152472 -0.027603269 -0.0069857426 0.036322784
-0.023720473 0.03386775 -0.0012867749 0.023168918 0.030599933 0.04865391 0.024930555 0.031383935
0.040838156 0.017847214 -0.016975421 -0.020437015 0.029882718 0.025440823 -0.0071271136 -0.038279556
0.0064655915 0.0043715835 0.00065792724 -0.0015638061 -0.031495683 -0.020582218 0.032521944 -0.027236326
0.023840096 -0.03803404 -0.00938065 -0.016147185 -0.000603579 0.028186742 -0.00070605427 0.0066015795
-0.02301613 0.009493411 0.010587551 -0.005092252 -0.017376669 0.0063887425 -0.04336095 -0.02181135
-0.040434103 -0.048834223 -0.014293171 -0.021194238 0.021330241 0.039000582 -0.037415378 0.04070549
00000000: e812 0abd 002c 2d38 64d4 753c 00b7 05bd
00000010: 2c2a 233c 50a0 933b b317 13bd ec4c 79bc
00000020: cbb1 33bd 29de 083d 4ba5 453d d556 49bd
00000030: fd7b c6bc 00a7 abba 0a96 85bc 14cd 2bbc
00000040: d270 16bd 9ebe c93c 498e 153d 282f ab3b
00000050: 212b 203d 3b67 073d b053 5c3b d20d 943c
00000060: 652e 29bd 0090 79b9 739b e0bc 0029 dbba
00000070: 8a45 e53c 7495 05bc 7a39 b8bc 3ab8 89bc
00000080: cba7 443d e025 213c ce0b d23c d614 ac3c
00000090: ec0a 18bc cf27 0b3d 064a 01bd 8974 3e3d
000000a0: d09d c2bb 0120 0b3d 91d9 463d 3240 933c
000000b0: f008 bcbb 20a0 173c 41f3 3b3d dd34 08bd
000000c0: 6dc7 1f3d 8a9f c8bc d3b5 42bd 96b0 bd3c
000000d0: 20d6 23bb 6fde 2ebd 803e 4f3b 09e6 113d
000000e0: faab c83c 3053 043b 3abd b5bc 3632 85bc
000000f0: 901b e5bb e6f7 de3c 00b1 5f3b 88cb 1bbc
00000100: 0538 0ebd 2b43 393d 903c adbc e6e8 11bd
00000110: 1512 0f3d 89c4 1f3d f838 61bc c07a cdbc
00000120: 9c84 8abc 00e0 ea39 dd6d 12bd 8022 5abb
00000130: e340 443d 29de 3e3d e473 90bc 0c8e 05bd
00000140: d620 ef3c b5e8 40bd e029 22bd 60f4 ae3a
00000150: 5448 5abc 4a93 acbc 6d40 103d bb81 1cbd
00000160: d8a0 3cbd 7fa6 253d 7f97 003d fd4a b0bc
00000170: c9c1 293d cc93 19bc 8da0 373d 2aee d03c
00000180: 5266 d33c b612 e83c 3e69 0ebd 2df4 abbc
00000190: c05b 223c 0f31 433d a9aa 483d 25e6 053d
000001a0: b0e2 eabc 9ac3 e1bc 80be e0b9 9816 0c3c
000001b0: 2250 a43c 94a0 4bbc d272 de3c c35e 323d
000001c0: 405d a53a 2389 fdbc 54a2 1f3c ecbd 0c3c
000001d0: 09eb 3c3d fac3 3abd 10e0 96bb 83ac 0e3d
000001e0: 368f 853c a03c c2ba 9e2c 2cbd 523c cc3c
000001f0: 0f60 003d 3071 e4bc 607c d3bc cca8 6e3c
00000200: c291 df3c 5bfd 1cbd a867 95bb 07be c2bc
00000210: fbd3 433d 20ce 21bc 18da 1e3c 30fd 4bbb
00000220: 7ab1 41bd eeb1 a53c f947 073d 45b5 303d
00000230: 31c0 133d 1746 493d 7852 4fbc afda 4abd
00000240: 5877 f5bb 38d8 44bc 23ed edbc 3d6b dcbc
00000250: 493c 333d a976 343d 34c1 6abc 438c 0e3d
00000260: 5853 bfbb a0af 8fbc 489f 52bc 6fbd 1a3d
00000270: 8e92 b33c 8a72 ed3c aa0c a4bc a0ee 0cbd
00000280: 2d24 073d 741b 4dbc 369d 90bc 9397 bfbc
00000290: 1738 f2bc 3bc1 413d c266 853c fe3e 04bd
000002a0: efa3 3cbd c1e9 3d3d d4a5 0cbc 7426 10bc
000002b0: 4051 53ba 6084 283c a085 693b 8de5 253d
000002c0: 20c1 f3bc 1d61 d1bc 79d0 113d 17d5 393d
000002d0: 98ba 32bc d837 0bbd f13b 143d a2cb eb3c
000002e0: 6aab 1abd f41d 1dbc d0c7 8fbb b794 36bd
000002f0: cb9f 043d 308f 04bb c079 90ba 2221 f73c
00000300: 142d 89bc 04d1 7d3c 9633 923c 8009 a83b
00000310: 8a99 4cbd e83b 12bc 0a17 f13c 8846 4a3c
00000320: 0014 183a b05e 633b a84c 2bbd 8a5a 47bd
00000330: 39d9 343d 4020 e2bc a8e8 e4bb 33c7 143d
00000340: 7051 c2bc e9b8 0a3d 00a9 a8ba becc bd3c
00000350: b6ac fa3c 5349 473d 2a3b cc3c 718c 003d
00000360: e945 273d 5234 923c 0a10 8bbc 876b a7bc
00000370: 9acc f43c 4669 d03c 908a e9bb 06cb 1cbd
00000380: 50dd d33b 803f 8f3b c078 2c3a a0f8 ccba
00000390: 9e01 01bd 0a9c a8bc bb35 053d b71e dfbc
000003a0: 4e4c c33c 95c9 1bbd 4cb1 19bc 1a47 84bc
000003b0: 8039 1eba e2e7 e63c 8016 39ba 1052 d83b
000003c0: 538c bcbc 408a 1b3c 6877 2d3c e8dc a6bb
000003d0: 8459 8ebc a858 d13b 409b 31bd b7ad b2bc
000003e0: 3b9e 25bd 6506 48bd e82d 6abc 8a9f adbc
000003f0: c2bc ae3c 13bf 1f3d de40 19bd cdba 263d

linear3.weight f4 [1, 300]
0.0101322085 0.07065225 -0.13712676 -0.13433975 0.12317097 -0.0692008 0.10376935 0.10196702
0.024182692 -0.008079842 0.009567082 0.041147426 -0.13392545 0.03171566 -0.029818602 -0.013871804
-0.1338698 -0.13965389 -0.06215506 -0.10996633 0.061461076 0.10808721 -0.014456078 0.056183353
0.094220325 -0.07349938 -0.050875 -0.13532394 -0.07604709 0.0385682 -0.10271846 -0.06884079
0.1057626 -0.012715429 0.01450561 -0.054210275 -0.10185576 0.12823606 -0.030785084 0.0817786
0.033241495 0.033728287 0.09284042 -0.08467989 0.08785176 -0.11054492 0.036857545 0.04136984
-0.08251998 0.100491896 -0.053813256 -0.0740407 0.08479157 0.07256426 0.12192899 -0.05086182
-0.05812425 -0.12135008 -0.03398265 -0.09530009 -0.03473889 -0.06414998 -0.029173732 -0.08918737
-0.05633264 -0.10297187 -0.11751011 -0.13839103 0.059010774 0.018118382 0.050229713 -0.1217379
0.021058172 0.1106669 0.105682105 0.077122 0.06569381 0.1187765 0.0072270334 -0.0908462
-0.11781878 0.116096884 0.10609141 -0.076635964 0.026285008 0.054737896 0.0020435154 0.05184284
0.09807207 0.028800696 -0.13236624 -0.08731556 0.11132851 0.07928555 -0.0625422 -0.06301573
0.11996052 -0.13741615 -0.010777086 -0.058418773 0.127857 -0.04239101 0.06452553 -0.07876842
-0.003961146 -0.038956277 -0.022007972 0.116909176 -0.13170174 0.08318856 0.12970325 0.025934696
0.10753925 0.047354504 -0.012215868 -0.11624558 -0.016607381 -0.023999028 -0.0907255 -0.041863583
0.062474117 0.069793195 0.11642149 -0.04722748 -0.08944141 -0.08974069 -0.07926173 0.111216635
-0.07832969 -0.02211932 0.07032132 0.011178687 0.0009420365 0.09495267 -0.1281451 -0.04448455
0.12182039 -0.05607397 -0.045598753 0.13317621 0.112083316 0.021521464 0.12366751 0.025687873
0.033838063 -0.12701872 -0.012542799 0.08510171 -0.020966053 0.096541315 -0.07701523 0.058527008
0.110219896 0.06326084 0.0031597018 -0.013744205 -0.09952619 -0.04489868 -0.10323105 0.11629188
0.04694864 0.026658043 -0.09062974 -0.13373376 -0.004289612 -0.004792273 -0.0051883906 0.050304174
-0.04157061 -0.12324724 -0.11532166 0.088946134 0.08267924 -0.055889577 -0.12865853 0.13781929
0.06394921 -0.0532996 0.13300014 -0.1063987 0.014866531 0.08130188 -0.11020151 0.018658042
-0.13621005 -0.109984756 -0.04821413 -0.061300345 -0.085910425 -0.0045062155 0.0971953 -0.12779492
0.012273341 0.112175435 -0.12422226 0.0337978 -0.11907915 0.030295134 0.0090427995 0.122654736
-0.13771543 0.023885757 -0.07462306 -0.05953391 0.080335766 0.054518193 0.0031924099 -0.044714183
-0.08643097 0.017676458 0.12170985 0.0030968785 0.03594254 0.056501493 0.04758109 0.0045336485
0.09627582 -0.12894236 0.008280039 -0.13621534 0.105027035 -0.08433087 -0.041616306 -0.12013218
0.102769345 0.017230958 0.12649617 -0.09377675 -0.0700493 -0.08144992 0.065759316 0.023137107
0.031049281 0.060834944 0.10785766 0.14043102 -0.10023547 0.015413463 0.117506534 0.058215097
-0.04628858 -0.12827788 0.0029924512 0.023376733 0.094320685 -0.13659884 0.08869845 -0.068300776
-0.097191066 -0.0836536 0.06478317 -0.092901945 0.13995138 0.08667241 -0.0057015866 -0.06989939
00000000: 9001 263c 20b2 903d f56a 0cbe 5c90 09be
00000010: 1041 fc3d 26b9 8dbd 0685 d43d 16d4 d03d
00000020: c81a c63c 5061 04bc 40bf 1c3c 348a 283d
00000030: c123 09be 48e8 013d 2446 f4bc 9046 63bc
00000040: 2a15 09be 6e01 0fbe 4e96 7ebd 0736 e1bd
00000050: 9cbe 7b3d d45c dd3d 30d9 6cbc 8420 663d
00000060: 96f6 c03d d886 96bd 4e62 50bd 5c92 0abe
00000070: 94be 9bbd b0f9 1d3d 0e5e d2bd 66fc 8cbd
00000080: 109a d83d 6054 50bc f0a8 6d3c 980b 5ebd
00000090: c199 d0bd 5050 033e 0031 fcbc 8a7b a73d
000000a0: 3c28 083d ac26 0a3d 1e23 be3d a66c adbd
000000b0: a0eb b33d 6065 e2bd f0f7 163d 6c73 293d
000000c0: 3c00 a9bd b2ce cd3d 4a6b 5cbd a7a2 97bd
000000d0: 34a7 ad3d 929c 943d e8b5 f93d 7c54 50bd
000000e0: b213 6ebd 6486 f8bd 6431 0bbd b22c c3bd
000000f0: 5e4a 0ebd 1161 83bd c0fd eebc dea7 b6bd
00000100: 0ebd 66bd eae2 d2bd 24a9 f0bd 61b6 0dbe
00000110: 48b5 713d 006d 943c acbd 4d3d b851 f9bd
00000120: 3082 ac3c 54a5 e23d dc6f d83d 24f2 9d3d
00000130: 7a8a 863d 1841 f33d c0d0 ec3b 930d babd
00000140: f94a f1bd 34c4 ed3d 7446 d93d 51f3 9cbd
00000150: a853 d73c d834 603d 80ec 053b 2859 543d
00000160: 02da c83d 70ef eb3c 048b 07be 80d2 b2bd
00000170: 3400 e43d 7660 a23d 2016 80bd 640e 81bd
00000180: dcad f53d d2b6 0cbe 6092 30bc 8648 6fbd
00000190: f2ec 023e 32a2 2dbd f625 843d 5651 a1bd
000001a0: 80cc 81bb 9e90 1fbd 104a b4bc 146e ef3d
000001b0: d2dc 06be c45e aa3d eed0 043e 0075 d43c
000001c0: 8a3d dc3d ccf6 413d 1025 48bc 2a12 eebd
000001d0: 340c 88bc 9c99 c4bc 4ace b9bd 2679 2bbd
000001e0: dce4 7f3d bcef 8e3d 646e ee3d 9a71 41bd
000001f0: 0f2d b7bd f8c9 b7bd f953 a2bd 8cc5 e33d
00000200: 516b a0bd 9433 b5bc a004 903d d026 373c
00000210: 00f3 763a 8c76 c23d 7838 03be 6e35 36bd
00000220: f87c f93d d2ad 65bd c2c5 3abd 585f 083e
00000230: f08b e53d c84d b03c 6445 fd3d 606f d23c
00000240: c899 0a3d 3211 02be 5080 4dbc ce49 ae3d
00000250: 00c1 abbc 74b7 c53d 29ba 9dbd 04ba 6f3d
00000260: f8ba e13d e68e 813d 0013 4f3b 602f 61bc
00000270: 63d4 cbbd aee7 37bd cd6a d3bd 702a ee3d
00000280: 384d 403d f861 da3c 169c b9bd 81f1 08be
00000290: e08f 8cbb 8008 9dbb 6003 aabb c00b 4e3d
000002a0: f245 2abd 0d69 fcbd c32d ecbd 6429 b63d
000002b0: bc53 a93d 78ec 64bd 10bf 03be 8020 0d3e
000002c0: cef7 823d ae50 5abd 3031 083e 90e7 d9bd
000002d0: c092 733c 9a81 a63d 54b1 e1bd c0d8 983c
000002e0: a67a 0bbe b03f e1bd 2e7c 45bd 1216 7bbd
000002f0: cef1 afbd e0a8 93bb 540e c73d acdc 02be
00000300: 2016 493c 3cbc e53d 3e68 febd 906f 0a3d
00000310: c5df f3bd 802d f83c 4028 143c 6832 fb3d
00000320: 4605 0dbe 10ac c33c fad3 98bd d4d9 73bd
00000330: 1487 a43d 784e 5f3d c037 513b 3826 37bd
00000340: b802 b1bd 38ce 903c 0443 f93d 00f5 4a3b
00000350: 7c38 133d 1c6e 673d 64e4 423d 008f 943b
00000360: 422c c53d 7709 04be 00a9 073c 097c 0bbe
00000370: 6a18 d73d aab5 acbd dc75 2abd dc07 f6bd
00000380: bc78 d23d f027 8d3c 3688 013e 060e c0bd
00000390: 0276 8fbd 37cf a6bd d2ac 863d 088a bd3c
000003a0: 105b fe3c 102e 793d 7ae4 dc3d 26cd 0f3e
000003b0: 4148 cdbd c088 7c3c 44a7 f03d f472 6e3d
000003c0: 1899 3dbd 475b 03be 001d 443b 9080 bf3c
000003d0: 342b c13d 91e0 0bbe 88a7 b53d 47e1 8bbd
000003e0: 1c0c c7bd 9452 abbd 0aad 843d 6043 bebd
000003f0: 6a4f 0f3e 4e81 b13d 60d4 babb 6927 8fbd
