RL/Realization/DDPG/best_model_pendulum.pkl (torch_old, 489891 bytes, 5 tensors)

linear1.weight f4 [400, 3]
0	0xbd6b11a4	-0.05738987
1	0xbb9726e0	-0.0046127886
2	0x3d2edfb2	0.0426938
3	0x3db20253	0.086918496
4	0xbcf01eb8	-0.029311523
5	0xbdc10300	-0.094244
6	0x3d5d6eb6	0.05406066
7	0x3bc9ec70	0.0061622187
8	0xbde8d1a1	-0.113681085
9	0x3cde77cc	0.027156733
10	0x3d199a5e	0.03750073
11	0x3cc59344	0.024118073
12	0xbc0a94a8	-0.008458294
13	0xbcae2140	-0.02125609
14	0xbbb86bc0	-0.005628079
15	0xbde0ab49	-0.1097017
16	0x3c5ea5e8	0.01358936
17	0x3db4b903	0.08824351
18	0xbda75374	-0.08170214
19	0xbdb53836	-0.08848612
20	0x3ca85b54	0.020551361
21	0xbcfeb9b0	-0.031094402
22	0x3d01b0f2	0.03166289
23	0x3d57256e	0.05252593
24	0x3d9253a1	0.07144857
25	0x3d0ee2f2	0.0348844
26	0xbcd4e3b4	-0.025987484
27	0x3bf9c210	0.007622011
28	0x3d59aa96	0.0531412
29	0x3d99c7b3	0.07508793
30	0x3d3154d2	0.04329378
31	0x3d7914ea	0.06081096
32	0x3bf58710	0.0074929073
33	0x3c0b5228	0.008503474
34	0x3d218b56	0.03943952
35	0x3c093448	0.008374281
36	0xbd5fe6fe	-0.05466365
37	0xbdcd78be	-0.10032795
38	0x3d38d8ee	0.045128755
39	0xbd42da00	-0.047571182
40	0x3bdb2490	0.006687708
41	0xbdd647f4	-0.10462943
42	0xbd93f7d9	-0.072250076
43	0xbdc620ac	-0.096742004
44	0x3ce610f4	0.028084256
45	0xbdce6330	-0.10077512
46	0xbdbeb674	-0.09312144
47	0x3daa2211	0.08307279
48	0xbbbbc8f0	-0.0057307407
49	0xbd64f496	-0.055897318
50	0xbbf89660	-0.0075862855
51	0x3df576f1	0.11985577
52	0x3d6865ba	0.05673764
53	0x3dbfa369	0.0935734
54	0x3d8680b1	0.06567515
55	0xbc4c3b48	-0.012465306
56	0xbdd238ce	-0.10264741
57	0xbdd10248	-0.10205513
58	0xbde62fc9	-0.11239583
59	0x3de9b781	0.11411954
60	0xbd83690a	-0.06416519
61	0xbb6cd760	-0.0036139116
62	0xbd95d6d2	-0.07316364
63	0x3cb7900c	0.022407554
64	0xbdaa37d4	-0.083114296
65	0x3d4f5f8a	0.050628223
66	0xbdaa9a40	-0.08330202
67	0xbd96fa16	-0.07371919
68	0xbde5ef58	-0.11227292
69	0xbdad1731	-0.08451689
70	0x3d40a846	0.047035478
71	0x3b5b6920	0.0033479407
72	0x3c7ec438	0.015549712
73	0x3d85410d	0.06506548
74	0x3dde217f	0.108462326
75	0x3dd1300f	0.102142446
76	0xbd9ebaf8	-0.07750505
77	0xbd9deb54	-0.07710901
78	0x3dc877cf	0.09788477
79	0xbc942c08	-0.018087402
80	0x3d8fab75	0.07015125
81	0x3d32b696	0.04363116
82	0x3d583206	0.05278208
83	0x3ccda16c	0.025101386
84	0x3db7e13d	0.08978508
85	0x3c4ff898	0.012693547
86	0xbc582ae8	-0.013193823
87	0x3da79747	0.08183151
88	0xbd3b833e	-0.04577946
89	0xbcac27d0	-0.021015078
90	0xbdf8a489	-0.121407576
91	0x3dda53d3	0.106605195
92	0xbdf5b5ef	-0.11997592
93	0xbd3055f8	-0.043050736
94	0x3d0d8f7a	0.034560658
95	0xbd053a4e	-0.032526307
96	0x3c93b9d4	0.018032946
97	0x3c5cc1c8	0.013473935
98	0x3d0435de	0.032277934
99	0xbd925f78	-0.071471155
100	0x3c3f8bf8	0.011691086
101	0xbcdb37f8	-0.026760086
102	0xbd83569a	-0.06413002
103	0x3ccca234	0.024979688
104	0x3c13a318	0.009011053
105	0xbdeefe72	-0.11669625
106	0x3d552b16	0.052043043
107	0xbdb4b43c	-0.088234395
108	0x3a3d7380	0.00072269887
109	0x3c738ff8	0.014865868
110	0xbc2fbf40	-0.01072675
111	0xbdadd85c	-0.08488533
112	0x3d83d7bd	0.06437633
113	0x3d8eff8d	0.06982336
114	0xbc251eb0	-0.010078117
115	0xbd8f9c78	-0.07012266
116	0xba31ee80	-0.00067875534
117	0x3d3e294a	0.046426095
118	0x3dbcfd23	0.092279695
119	0x3cbfee34	0.023429014
120	0x3d466cb2	0.048443504
121	0x3ddc4cd7	0.107568435
122	0x3d9378d5	0.07200781
123	0xbd87d803	-0.06632998
124	0xbd5f245c	-0.054478034
125	0x3cb37e9c	0.021910958
126	0x3da5b613	0.080913685
127	0x3df3fdcf	0.119136445
128	0x3db4567b	0.08805557
129	0x3db76225	0.089542665
130	0xbdd91e70	-0.106015086
131	0xbd60303c	-0.0547335
132	0x3d715702	0.058920868
133	0xbdf47e5b	-0.11938163
134	0xbd37e116	-0.044892393
135	0x3cdd9aa4	0.027051277
136	0xbd663bce	-0.056209378
137	0x3def3bf5	0.11681358
138	0xbdf8d3ae	-0.1214975
139	0xbd120fcc	-0.035659596
140	0x3dc0826d	0.09399877
141	0x3cfbd544	0.030741341
142	0x3d1661e2	0.036714442
143	0xbda718e8	-0.08159047
144	0x3b27e120	0.0025616363
145	0xbd9a6694	-0.075390965
146	0x3d2d47e2	0.04230488
147	0x3debe7bd	0.1151881
148	0x3dd67b9f	0.104727976
149	0x3dd1b949	0.102404185
150	0x3db70395	0.0893623
151	0xbd8543a5	-0.06507043
152	0x3c358d98	0.011081122
153	0x3da30f3d	0.07961891
154	0xbd80e017	-0.06292742
155	0xbdddba08	-0.10826498
156	0xbd176398	-0.036960214
157	0xbddaccf8	-0.10683626
158	0x3c76cfd8	0.015064202
159	0xbdcdcbf6	-0.10048668
160	0x3d2484fa	0.04016588
161	0x3dc2c645	0.09510473
162	0xbd9ab3de	-0.07553838
163	0x3d40aea2	0.047041543
164	0xbdcb735a	-0.09934111
165	0x3de5947d	0.112099625
166	0x3d2fa72e	0.042884044
167	0x3dd63047	0.10458427
168	0x3d475b62	0.048671134
169	0x3d3fd1f6	0.046831094
170	0x3cc56cec	0.02409979
171	0xbdf8f7e5	-0.12156657
172	0x3c3680e8	0.011139132
173	0xbdf82311	-0.121160634
174	0x3af36ec0	0.0018572435
175	0xbcb709b0	-0.022343487
176	0xbcb64258	-0.022248432
177	0xbd86bcf8	-0.06579012
178	0x3d8d3b25	0.068960465
179	0xbd49e702	-0.04929257
180	0x3dd775e3	0.10520532
181	0xbdba40d8	-0.09094399
182	0x3ddcc0bd	0.107789494
183	0x3cf0a93c	0.029377572
184	0xbde3c712	-0.11121954
185	0xbce024b0	-0.027361244
186	0xbbee6c20	-0.007276073
187	0x3ded9fbd	0.11602733
188	0x3dbaa977	0.09114354
189	0x3dad3b57	0.08458584
190	0xbcf4386c	-0.02981206
191	0xbdd328fb	-0.10310551
192	0x3cf6eb2c	0.030141436
193	0xba860d40	-0.0010227337
194	0xbc5a4500	-0.013322115
195	0x3d524b42	0.051341303
196	0x3ca67d44	0.020323403
197	0x3da99001	0.0827942
198	0xbcc39d50	-0.023878723
199	0xbdf9b85b	-0.12193366
200	0x3dc10457	0.09424656
201	0xbdc021f6	-0.093814775
202	0xbd8f6518	-0.07001704
203	0x3d1ccb72	0.038279958
204	0xbd816fb6	-0.06320135
205	0xbdd56fda	-0.104217246
206	0xbd98c50a	-0.07459457
207	0x3d71eac6	0.059061788
208	0x3c15d048	0.009143896
209	0xbdbd8c62	-0.092552915
210	0x3b1b8520	0.0023730472
211	0xbc3691b0	-0.011143133
212	0x3df0bbdd	0.11754582
213	0x3d42c94e	0.04755526
214	0x3d817aad	0.06322227
215	0x3c82b84c	0.01595702
216	0x3d2b257a	0.041783787
217	0x3db56383	0.08856871
218	0xbad87d80	-0.0016516894
219	0xbd78e191	-0.060761992
220	0xbd59093c	-0.052987322
221	0xbdbbf065	-0.09176711
222	0x3d40d1ea	0.04707519
223	0x3dd4c5b7	0.103892736
224	0xbdae1dd2	-0.085017815
225	0xbcfcaaa0	-0.03084308
226	0x3d7e7a66	0.062128447
227	0xbd56064c	-0.0522521
228	0x3d1e03da	0.038577892
229	0xbcbfbe40	-0.023406148
230	0xbb840290	-0.004028626
231	0x3c84441c	0.016145758
232	0xbd7dbbf0	-0.06194681
233	0x3dd68941	0.10475398
234	0xbcf120d4	-0.029434599
235	0x3d1e2f6e	0.03861945
236	0x3d60a9f2	0.054849572
237	0xbd53d4d2	-0.051716633
238	0x3daf850f	0.08570301
239	0x3c9b6d54	0.01897303
240	0x3cd34d3c	0.025793664
241	0xbde2d518	-0.11075801
242	0x3dc88bb1	0.09792269
243	0x3d0ab4b6	0.033863746
244	0xbcb03af0	-0.021512479
245	0xbdb9bd2f	-0.09069287
246	0xbd458b80	-0.04822874
247	0x3dd8031b	0.10547467
248	0x3ddd6c69	0.10811693
249	0x3be711b0	0.007051669
250	0xbd9f3e5a	-0.077755645
251	0xbd37ab98	-0.04484138
252	0xbce12b8c	-0.027486585
253	0x3dc64a6b	0.09682163
254	0x3d27f45a	0.041004516
255	0xbd7db614	-0.06194122

linear1.bias f4 [400]
0	0x3e7c52ec	0.24641007
1	0xbf0d86c8	-0.55283785
2	0x3f0d73cc	0.55254817
3	0xbe93803e	-0.2880878
4	0xbe482ec4	-0.1954909
5	0xbec4756a	-0.3837083
6	0xbf0e1b4d	-0.5551041
7	0x3efcdee8	0.49388814
8	0xbd75e330	-0.060031116
9	0xbe2c9236	-0.1685265
10	0x3e139874	0.14413625
11	0xbea8ad7a	-0.32944852
12	0x3ec6f0e4	0.3885566
13	0x3ee8a71c	0.45439994
14	0xbdd17d7c	-0.10229012
15	0x3d8800f0	0.06640804
16	0x3eb19e36	0.34691018
17	0xbeee024a	-0.4648612
18	0xbea54db5	-0.32285848
19	0x3eb1b04c	0.34704816
20	0x3ec8d2f8	0.39223456
21	0x3eabd53a	0.33561116
22	0x3ed5eb8c	0.4178127
23	0xbe9a968c	-0.30192983
24	0xbf0915c4	-0.53548837
25	0x3f13c206	0.5771793
26	0xbed93b7c	-0.42428195
27	0x3e23f408	0.1601106
28	0x3ecd49fe	0.40095514
29	0x3e7f82b4	0.24952203
30	0x3da72d28	0.0816291
31	0x3e4af5b4	0.19820291
32	0xbf07c11f	-0.53029054
33	0x3ecce9c0	0.40022087
34	0x3e930c62	0.28720385
35	0x3c6f4580	0.014603972
36	0x3e5d0f74	0.21587926
37	0xbee6ade4	-0.45054543
38	0xbe58dffc	-0.21179193
39	0x3de325a8	0.11091167
40	0xbe8c524b	-0.27406535
41	0x3ebe6340	0.37185097
42	0x3b29c100	0.002590239
43	0xbf0fee9b	-0.5622346
44	0xbee316e0	-0.4435339
45	0x3de32f28	0.11092979
46	0x3ef17cb8	0.47165465
47	0xbd4d9010	-0.050186217
48	0x3d8a39e8	0.06749326
49	0x3f0ee29c	0.5581453
50	0x3f10cc38	0.56561613
51	0x3e93171c	0.2872857
52	0x3e543358	0.20722711
53	0xbda459d4	-0.08024946
54	0x3e8349b6	0.25642174
55	0xbf00cf34	-0.50316167
56	0xbe723996	-0.2365478
57	0x3f079bf0	0.52972317
58	0xbe3399e2	-0.1753917
59	0x3edc6388	0.43044686
60	0xbe83cd3e	-0.25742525
61	0xbed569dc	-0.41682327
62	0xbecba4be	-0.39774126
63	0xbecb0692	-0.3965345
64	0xbd8a4cb8	-0.06752914
65	0xbedb2ae8	-0.42806172
66	0x3ecd65ee	0.4011683
67	0xbe940a74	-0.28914225
68	0x3eb3ca80	0.35115433
69	0xbedee7f4	-0.4353634
70	0xbef47268	-0.47743535
71	0x3cf34140	0.0296942
72	0xbd4cbb60	-0.049983382
73	0xbf0222fb	-0.50834626
74	0xbdaf57cc	-0.08561668
75	0xbc4f2f40	-0.012645543
76	0x3efd68d0	0.49494028
77	0x3f045d80	0.5170517
78	0xbe6946fc	-0.22780985
79	0x3d7a7a60	0.061151862
80	0xbd896268	-0.06708223
81	0x3eacd52e	0.33756393
82	0x3ed8f1a8	0.4237187
83	0x3d072150	0.032990754
84	0x3d429d90	0.047513545
85	0xbeb3812c	-0.35059488
86	0x3cf6ce00	0.030127525
87	0xbeef76f1	-0.46770433
88	0x3db18450	0.08667815
89	0xbe059dfc	-0.13048548
90	0x3ea317a2	0.31853968
91	0xbeef1eec	-0.4670328
92	0xbecfb6c3	-0.40569124
93	0xbf02b5ae	-0.5105847
94	0x3dc60dd8	0.09670609
95	0xbe4ad90c	-0.1980936
96	0xbf133e80	-0.5751724
97	0xbe6e19dc	-0.23252052
98	0x3da007c0	0.07813978
99	0x3ebfb7ba	0.3744486
100	0x3db16820	0.086624384
101	0x3ed83666	0.42229003
102	0xbde2b960	-0.11070514
103	0xbedf0d70	-0.4356494
104	0x3e953e72	0.29149204
105	0x3e7c2844	0.24624735
106	0xbebf3574	-0.3734547
107	0xbd24b170	-0.04020828
108	0x3efbc444	0.49173176
109	0x3e8f6966	0.280101
110	0x3eecb36c	0.46230638
111	0xbe2a7418	-0.16645849
112	0xbecd0d9e	-0.40049452
113	0x3e3d6a78	0.18497646
114	0xbe1b5d3a	-0.15172282
115	0xbec8f118	-0.3924644
116	0x3e3e6700	0.18593979
117	0xbf0969e4	-0.536772
118	0x3e5b8338	0.21436775
119	0x3ed70fd8	0.42004275
120	0x3ebdeb16	0.3709342
121	0x3ed2ec50	0.41195917
122	0xbf0d1fc0	-0.5512657
123	0x3e784ae4	0.24247319
124	0xbe29c53c	-0.16579145
125	0x3de33360	0.110937834
126	0x3ecd3908	0.40082574
127	0x3cd78400	0.02630806
128	0xbe23f23e	-0.16010377
129	0xbdcdda70	-0.10051429
130	0x3e4126f8	0.18862522
131	0x3eed6b78	0.46371055
132	0xbf077e43	-0.52927035
133	0xbef6508b	-0.48108324
134	0xbf02d1d1	-0.51101404
135	0x3ef2cfbc	0.47424114
136	0xbdb75160	-0.08951068
137	0x3da9e6f0	0.08296001
138	0xbe3f0ef2	-0.18658045
139	0xbe034c32	-0.12822035
140	0x3e97bac4	0.29634678
141	0xbdfba7d8	-0.12287873
142	0x3e9e74cc	0.30948484
143	0xbd88e4b0	-0.06684244
144	0xbe2bf0d2	-0.16791084
145	0xbdaea2c0	-0.08527136
146	0x3e428b64	0.18998486
147	0x3f07d788	0.5306325
148	0xbf096746	-0.5367321
149	0x3e8b55d2	0.27213913
150	0xbebba630	-0.36650229
151	0x3ed13056	0.4085719
152	0xbe5afb5c	-0.21384948
153	0x3f016b98	0.505548
154	0x3e9de626	0.30839652
155	0xbeaf919e	-0.34290785
156	0x3e57e90c	0.21084994
157	0x3df35e60	0.11883235
158	0x3e996fae	0.29968017
159	0xbdcc22e4	-0.09967592
160	0x3eb64148	0.3559668
161	0xbe0a4754	-0.13503772
162	0xbeba8f3c	-0.36437404
163	0xbea17d2a	-0.31540805
164	0x3e8ecdc8	0.27891374
165	0xbee80140	-0.45313454
166	0xbe6fc91c	-0.23416561
167	0xbeb02f78	-0.34411216
168	0xbed45318	-0.41469646
169	0xbf11527b	-0.5676648
170	0x3ef2f138	0.4744966
171	0x3dd7e9a0	0.10542607
172	0x3e9e91d0	0.3097062
173	0xbd1b5250	-0.037920296
174	0x3dff7178	0.12472814
175	0xbcfe16c0	-0.031016707
176	0x3e85af6e	0.26110405
177	0x3eef1904	0.46698773
178	0xbf026fd9	-0.50951916
179	0xbe1bfd7e	-0.15233418
180	0xbee48a0f	-0.4463658
181	0x3c338880	0.010957837
182	0x3e8f717c	0.2801627
183	0x3ed49b66	0.4152481
184	0xbf09c54c	-0.53816676
185	0xbe257a16	-0.16159853
186	0x3db95b40	0.09050608
187	0x3efa6e4c	0.48912275
188	0x3ebd4ae0	0.36971188
189	0xbf08562d	-0.53256494
190	0x3c7fa740	0.01560384
191	0xbe8cdf6b	-0.27514204
192	0xbe37e470	-0.17958236
193	0x3e031008	0.12799084
194	0x3d3df480	0.04637575
195	0xbf032667	-0.5123047
196	0x3d8e94c8	0.069619715
197	0x3df30108	0.11865431
198	0x3ed96660	0.42460918
199	0x3ddc71e8	0.107639134
200	0x3e035f3c	0.12829298
201	0xbf0225ba	-0.50838816
202	0x3d8b2aa0	0.067952394
203	0xbd5cfc40	-0.0539515
204	0x3ec3f86e	0.38275474
205	0x3c7439c0	0.014906347
206	0x3f0b30da	0.54371417
207	0xbde4ea88	-0.11177546
208	0xbf07ea54	-0.5309193
209	0xbd851fb8	-0.065001905
210	0xbd3dcb60	-0.04633653
211	0xbe2d2c62	-0.16911462
212	0xbe8d6a86	-0.27620333
213	0xbecdc012	-0.401856
214	0x3eb948e4	0.36188424
215	0x3f1346ea	0.5753008
216	0xbeff5f54	-0.49877417
217	0x3ef3a7a8	0.4758885
218	0xbf04b783	-0.51842517
219	0xbd13ef00	-0.0361166
220	0x3e426638	0.18984306
221	0xbed61da7	-0.41819498
222	0x3cb06c60	0.021536052
223	0x3ea07d88	0.31345773
224	0x3ec1fe5e	0.3788938
225	0x3eb9db4c	0.36300123
226	0xbe85a204	-0.2610017
227	0xbed87bc5	-0.4228193
228	0xbdf8d4a4	-0.12149933
229	0x3ee121ac	0.43971002
230	0xbf0bbfe3	-0.5458967
231	0xbeff5450	-0.49869013
232	0x3ea6e910	0.32599688
233	0x3e8bb34a	0.27285224
234	0x3ed1b21e	0.40956205
235	0x3e151454	0.14558536
236	0x3d2aed80	0.041730404
237	0xbc810640	-0.01575005
238	0x3e2e64d4	0.1703065
239	0xbc379fc0	-0.011207521
240	0xbf08cb38	-0.5343509
241	0xbd48abe0	-0.048992038
242	0x3ea88cc0	0.32919884
243	0xbeb6632e	-0.35622543
244	0xbf01c66c	-0.5069339
245	0x3da83858	0.08213872
246	0x3ebd1942	0.36933333
247	0x3ef7ae20	0.48375034
248	0xbf0be4e3	-0.5464613
249	0x3e24c218	0.16089666
250	0xbe720cf6	-0.23637757
251	0x3eb3beb6	0.35106438
252	0xbeb45990	-0.3522458
253	0xbd4f4440	-0.050602198
254	0xbf106418	-0.5640273
255	0xbe6cafd8	-0.23113954

linear2.weight f4 [300, 400]
0	0x3c238388	0.00998009
1	0x3d7342ea	0.059389986
2	0x3b73f180	0.0037222803
3	0x3d8453cd	0.06461296
4	0x3daee6c5	0.085401095
5	0xbdb107e4	-0.08644083
6	0x3cd77170	0.026299208
7	0x3d0a8592	0.03381879
8	0xbdbc66ca	-0.09199293
9	0xbd637958	-0.055535644
10	0x3d9e094b	0.07716616
11	0xbbb779c0	-0.0055992305
12	0xbd4d375f	-0.050101634
13	0xbda07cc8	-0.078363
14	0xbd9e4f5d	-0.07729981
15	0xbd40b127	-0.047043946
16	0xbc6f6c80	-0.014613271
17	0x3d59b8ae	0.05315464
18	0x3d981f9b	0.07427903
19	0x3c154950	0.009111717
20	0x3c462c10	0.012095466
21	0xbd049920	-0.032372594
22	0xbda1d80a	-0.07902534
23	0xbd64c38a	-0.055850543
24	0x3d7166be	0.058935873
25	0x3da26e2f	0.07931172
26	0xbda07cc8	-0.078363
27	0xbbe481f0	-0.0069734976
28	0x3cdf8524	0.027285166
29	0x3c231608	0.009953983
30	0x3cfbbd80	0.03073001
31	0xbcac6b48	-0.02104725
32	0x3c58d1e0	0.013233632
33	0xbdb50181	-0.088381775
34	0xbc148f58	-0.009067379
35	0xbda95e7b	-0.08269974
36	0xbd2b918b	-0.041886847
37	0x3db0cc59	0.08632726
38	0xbd98421c	-0.07434484
39	0x3dbc6be7	0.09200268
40	0xbc7157a0	-0.014730364
41	0x3d6b9a82	0.057520397
42	0x3b2b4960	0.0026136264
43	0xbc98b37c	-0.018640272
44	0x3db27327	0.0871337
45	0xbc100e48	-0.008792467
46	0x3c524628	0.012834109
47	0xbdb88ad6	-0.09010856
48	0x3c85714c	0.016289376
49	0x3d1a025e	0.037599914
50	0xbd346967	-0.044045832
51	0x3b141820	0.0022597387
52	0x3c399740	0.011327565
53	0x3daef4ef	0.08542811
54	0x3ccaeecc	0.02477207
55	0xbcd0d568	-0.025492385
56	0xbaa48440	-0.0012551621
57	0xbc4c3b48	-0.012465306
58	0x3cd0c67c	0.02548527
59	0x3da37ca5	0.079827584
60	0x3d147a22	0.036249287
61	0xbd56c0f5	-0.052430112
62	0xbd82aa3f	-0.06380128
63	0xbc870f20	-0.016486704
64	0xbd0182ff	-0.03161907
65	0x3d33a58a	0.043859042
66	0x3d02475a	0.031806327
67	0x3d9a49d5	0.075336136
68	0xbcb21798	-0.021739766
69	0xbc711148	-0.014713593
70	0x3d952f61	0.072844274
71	0xbd8c9ae1	-0.06865478
72	0x3c86c310	0.016450435
73	0x3d8df861	0.0693214
74	0xbce9f778	-0.028560385
75	0xbd80406c	-0.062622875
76	0xbc8ae0f8	-0.016952977
77	0xbccf9840	-0.025341153
78	0xbd722aac	-0.059122726
79	0x3dacf81f	0.08445763
80	0x3d9737a9	0.07383663
81	0x3d82a513	0.06379142
82	0x3aef9740	0.0018279329
83	0x3c6bd790	0.014394656
84	0x3d5a2642	0.05325914
85	0x3d715b96	0.058925234
86	0x3d826ca1	0.063683756
87	0x3db5862f	0.08863484
88	0xbcc04ca0	-0.023474038
89	0x3db17cdd	0.08666394
90	0x3d88a3ef	0.06671893
91	0xbd3a29d1	-0.045450035
92	0xbd5a56d1	-0.05330545
93	0x3dac11ab	0.084018074
94	0xbd3f0cc3	-0.04664303
95	0x3d0ec4b2	0.034855552
96	0xbd05a5c9	-0.03262881
97	0xbcb175c4	-0.0216626
98	0x3af1d900	0.0018451512
99	0xbdb79a79	-0.0896501
100	0x3bba8c30	0.005692981
101	0xbca3b798	-0.019985005
102	0xbd437ad8	-0.047724575
103	0x3c56b1b8	0.013103895
104	0x3d2af616	0.041738592
105	0x3ce83178	0.028343901
106	0xbc285490	-0.0102740675
107	0xbd5dfcf2	-0.054196306
108	0xbd9fb5d6	-0.07798354
109	0x3d225782	0.039634235
110	0x3d881703	0.06645014
111	0x3be5a9c0	0.007008761
112	0x3d4d3c7a	0.050106503
113	0x3d7a64ce	0.06113129
114	0x3c5dfbf0	0.013548836
115	0x3d68b786	0.056815647
116	0xbd36a51f	-0.044591065
117	0xbd3984eb	-0.045292776
118	0x3d6b21e6	0.057405375
119	0xbcb91580	-0.02259326
120	0xbd493ffe	-0.049133293
121	0xbd149da7	-0.03628316
122	0x3d84a9f7	0.06477731
123	0x3cd5f650	0.026118428
124	0x3c6f4fc0	0.014606416
125	0xbc86ee08	-0.016470924
126	0xbcf4d2c8	-0.029885665
127	0x3ca12f7c	0.019675963
128	0xbaa21cc0	-0.0012368187
129	0xbcc55ed0	-0.024093062
130	0xbd5a88ab	-0.053352993
131	0xbcd492c8	-0.025948897
132	0xbc583438	-0.013196044
133	0xbd48e2ae	-0.049044304
134	0xbd2d4fb8	-0.042312354
135	0xbda1980e	-0.0789033
136	0x3cc4bb7c	0.02401518
137	0x3c357218	0.011074565
138	0xbb3d9900	-0.0028930306
139	0x3cfde6c8	0.030993834
140	0xbdbcd6d0	-0.0922066
141	0x3d57ce9e	0.05268728
142	0x3d0e4406	0.03473284
143	0xbc35d630	-0.01109843
144	0x3d135a06	0.035974525
145	0x3c3084f8	0.01077389
146	0xbd752ac2	-0.05985523
147	0x3d8fa47d	0.070137955
148	0x3c5c9018	0.013462089
149	0xbc2c38a8	-0.010511555
150	0x3c948fd4	0.018134989
151	0xbd21f201	-0.039537434
152	0x3da4e98f	0.0805236
153	0x3d9a96b5	0.07548276
154	0xbdb19226	-0.08670454
155	0xbbaa1c00	-0.005191326
156	0x3c7399c0	0.0148682
157	0xbd528ba6	-0.05140271
158	0x3d8c594f	0.06852972
159	0xbd6cd40f	-0.057819422
160	0x3d846209	0.06464011
161	0x3d65133e	0.055926554
162	0xbd732365	-0.059359927
163	0x3d876e67	0.066128545
164	0x3d6f3da6	0.058408402
165	0xbda1d3d1	-0.07901729
166	0xbb6fd000	-0.0036592484
167	0xbdadd3d1	-0.084876664
168	0x3d80c66d	0.06287847
169	0x3dba71b7	0.09103721
170	0xbd0b3cb0	-0.033993423
171	0xbc8d32cc	-0.017236136
172	0x3d9a0455	0.075203575
173	0x3da8b773	0.08238115
174	0x3d21543e	0.03938698
175	0xbd420d2e	-0.04737585
176	0xbd95dba0	-0.07317281
177	0x3cf95ef8	0.030440792
178	0x3db62e69	0.08895571
179	0xbd7f33c8	-0.06230524
180	0x3d334b36	0.0437729
181	0x3d2962ca	0.04135398
182	0x3d9ea771	0.07746781
183	0x3d9d9885	0.076951064
184	0x3dac8c89	0.084252425
185	0x3db4f95d	0.08836625
186	0x3daa7fbd	0.083251454
187	0x3c1e0900	0.0096457
188	0x3cefcc6c	0.02927228
189	0x3b93c0f0	0.004509084
190	0x3d49b03e	0.049240343
191	0xbd8676c3	-0.06565621
192	0x3a9e36c0	0.001207076
193	0x3d96b153	0.07358041
194	0x3d7d6916	0.061867796
195	0x3dacfd2f	0.084467284
196	0x3d028d22	0.031872876
197	0xbbe357f0	-0.006937973
198	0xbd84035a	-0.06445952
199	0xbd89b16e	-0.06723295
200	0xbd98d4a8	-0.07462436
201	0x3dba9a4b	0.0911146
202	0xbdb5c3f8	-0.08875269
203	0xbcaf5624	-0.02140338
204	0x3d28fa6e	0.041254453
205	0x3db4f22f	0.08835255
206	0xbda3e0ae	-0.080018386
207	0xbd9e59f7	-0.07732003
208	0xbc9ac6a0	-0.01889354
209	0x3d000100	0.031250954
210	0xbda96f5e	-0.08273195
211	0x3d9eb4e5	0.07749347
212	0xbd934f0f	-0.071928136
213	0x3b3f1dc0	0.002916202
214	0x3c85bd74	0.01632569
215	0xbcae0914	-0.021244563
216	0xbd625575	-0.05525728
217	0xbc393750	-0.011304691
218	0xbc5321f0	-0.012886509
219	0x3dab8603	0.0837517
220	0xbd608830	-0.05481738
221	0x3ca909a4	0.02063448
222	0x3d093572	0.033498235
223	0xbd1d9ba2	-0.0384785
224	0xbd942040	-0.07232714
225	0x3d5df77a	0.05419109
226	0x3c29b8a8	0.010358967
227	0xbda1e2ac	-0.07904562
228	0xbd6da3f6	-0.058017693
229	0xbc8bab90	-0.01704958
230	0xbdb21e1e	-0.08697151
231	0x3cbb7d98	0.022887036
232	0xbda96884	-0.08271888
233	0x3d3dae7a	0.046308972
234	0x3d0df182	0.034654148
235	0x3b457820	0.0030131415
236	0xbd93004d	-0.07177792
237	0x3d46c5f6	0.048528634
238	0x3c906794	0.017627515
239	0xbd220a13	-0.03956039
240	0xbbdacdb0	-0.006677352
241	0xbd9544cc	-0.072885126
242	0xbc2791f8	-0.010227673
243	0xbd121271	-0.03566212
244	0xbca039d0	-0.019558817
245	0x3c368ca0	0.011141926
246	0xbd6b9945	-0.057519216
247	0xbb92a6c0	-0.0044754446
248	0xbcec9aa0	-0.028882325
249	0xbd1d5f74	-0.03842111
250	0xbd7f76fc	-0.06236933
251	0x3d18e1c2	0.037324674
252	0x3d4855d2	0.04890997
253	0x3d287df6	0.04113575
254	0xbd922b16	-0.07137124
255	0xbd8bfcfe	-0.06835364

linear2.bias f4 [300]
0	0x3b8e3328	0.0043395944
1	0xbc211f74	-0.009834159
2	0xbd0dd2b2	-0.034624763
3	0x3bbb5098	0.0057163946
4	0xbc86d79c	-0.016460232
5	0xbb966cd0	-0.004590608
6	0x3cd219f6	0.025647145
7	0xbca9ee87	-0.020743622
8	0xbca6f9a0	-0.020382702
9	0xbd3943b2	-0.045230575
10	0x3c480918	0.012209199
11	0x3bd30ff0	0.006441109
12	0xbd3aaaa0	-0.045572877
13	0xbcf648ca	-0.030064005
14	0x3c1225f8	0.008920185
15	0xbd49260b	-0.049108546
16	0xbcc6f263	-0.0242855
17	0xbc1953b8	-0.009358339
18	0xbc31cb54	-0.0108517
19	0xbb8c8958	-0.0042888336
20	0x3cfdaa16	0.030964892
21	0x3cf3f276	0.0297787
22	0x3d1e6eef	0.038680013
23	0x3cd32946	0.025776517
24	0x3c57341c	0.013134982
25	0xbd16c342	-0.036807306
26	0x3d0085bd	0.031377543
27	0xbc3949cc	-0.011309098
28	0xbc84f184	-0.016228445
29	0xbcd10317	-0.025514169
30	0x3d2d044f	0.042240437
31	0xbc1266b4	-0.008935619
32	0xbc68c838	-0.014207892
33	0x3d2d3f85	0.042296905
34	0x3cae9f52	0.021316204
35	0xbd0e4170	-0.034730375
36	0x3d23ca85	0.03998806
37	0x3b3433d0	0.0027496703
38	0xbd1cc352	-0.03827221
39	0x3b18b630	0.0023301952
40	0x3d3fb7a9	0.04680601
41	0x3cfc4d1e	0.030798491
42	0x3d2b10a1	0.041763905
43	0x3cd730a2	0.026268307
44	0xbcaf8f87	-0.021430744
45	0xb8ea4400	-0.000111706555
46	0xbca919d3	-0.020642197
47	0x3cfaa64a	0.03059687
48	0x3d2dcb61	0.042430285
49	0xbb9075e8	-0.004408587
50	0x3c8b3676	0.016993742
51	0x3d1a23a5	0.03763165
52	0xbd4b1a27	-0.049585488
53	0xbd0d03b6	-0.034427367
54	0x3cf6a1e2	0.030106489
55	0x3d219a1b	0.039453607
56	0xbb174500	-0.0023081899
57	0xbce18e4a	-0.027533669
58	0xbce2e590	-0.027697355
59	0xbd209030	-0.039200008
60	0x3cb608a6	0.02222092
61	0xbb3e7e80	-0.00290671
62	0x3bd99ff0	0.0066413805
63	0xbaf8dc40	-0.0018986538
64	0xbcf4af8d	-0.029868865
65	0x3bb62028	0.0055580325
66	0xbced412a	-0.028961737
67	0x3d1bf649	0.038076673
68	0x3d484389	0.04889253
69	0x3d20b457	0.039234485
70	0xbd19b3e8	-0.037525088
71	0x3c7fe8b4	0.015619446
72	0xbacbe1a0	-0.0015554912
73	0xbbd12b50	-0.006383337
74	0x3d0b1789	0.03395799
75	0x3cb3e4ee	0.021959748
76	0x3bb78400	0.0056004524
77	0xbc39f754	-0.0113504715
78	0x3d3a65f3	0.045507383
79	0x3ca04e6e	0.019568648
80	0x3b722360	0.0036947355
81	0xbd300d07	-0.042981174
82	0xbcbaa847	-0.022785319
83	0x3cfb780e	0.030696895
84	0x37d24000	2.5063753e-05
85	0x3bb7c4a8	0.00560816
86	0x3bd89618	0.0066096894
87	0x3d17b297	0.03703555
88	0xbd45096f	-0.0481047
89	0x3d3ea811	0.046547
90	0xbcf20967	-0.029545499
91	0xbc175c98	-0.009238385
92	0x3b406300	0.0029355884
93	0x3c1971d8	0.009365521
94	0x3d08ea91	0.033426825
95	0xbd4b29ca	-0.0496004
96	0xbcc0424d	-0.023469115
97	0xbd2a4d20	-0.04157746
98	0x3bf61518	0.007509839
99	0xbd3594e8	-0.04433146
100	0x3b4f6120	0.0031643584
101	0x3ad95b40	0.0016582981
102	0xbca50c93	-0.020147597
103	0xbd1442a2	-0.03619636
104	0xbd19b20b	-0.03752331
105	0xbc9e0ddd	-0.01929372
106	0xbcf259fd	-0.029583925
107	0xbcc1b54a	-0.023646016
108	0xbd18fc30	-0.03734988
109	0x3b927658	0.004469674
110	0x3d1a8881	0.037727837
111	0xbd437bfd	-0.047725666
112	0x3d348f0d	0.044081736
113	0xbc5e9c14	-0.013587017
114	0xbcb8f35d	-0.022576982
115	0x3d0c802d	0.034301925
116	0x3cf1bb5a	0.029508281
117	0xbd4530db	-0.048142295
118	0xbb66df60	-0.0035228357
119	0xbc87f7b0	-0.016597599
120	0xbc092088	-0.008369572
121	0xba0fb080	-0.00054813176
122	0xbcd51b83	-0.026014095
123	0xbd2ac290	-0.041689456
124	0x3d0f2731	0.034949485
125	0xbb13aca0	-0.0022533312
126	0x3d3bc5eb	0.045843046
127	0xbc8e403a	-0.01736461
128	0x3c9de416	0.019273799
129	0xbbfb8690	-0.007675953
130	0x3d153857	0.036430683
131	0xbbcc3210	-0.006231554
132	0xbc91d9e0	-0.017804086
133	0x3c13a008	0.009010322
134	0x3d1f28f3	0.03885741
135	0xbd155f28	-0.0364677
136	0x3d0448cb	0.032295983
137	0xbc8cdae0	-0.017194211
138	0x3c242318	0.010018133
139	0xbba67a28	-0.00508048
140	0x3c843eb2	0.016143177
141	0x3c4b7388	0.0124176815
142	0x3d15a5a1	0.03653491
143	0x3b5c02d0	0.0033571012
144	0x3d3b3e7b	0.045713883
145	0x3d10fe5f	0.035398837
146	0x3c8cf5a6	0.017206978
147	0x3cbabb1e	0.022794303
148	0x3ce7028e	0.02819946
149	0x3d458f9b	0.048232656
150	0xbd3b8a5a	-0.04578624
151	0x3d256317	0.040377703
152	0x3b4f4050	0.0031624027
153	0x3d128e69	0.035780344
154	0xbcc55980	-0.024090528
155	0xbd4117b3	-0.047141742
156	0x3d2c00f9	0.041993115
157	0xbc7d1bf4	-0.015448559
158	0xbbea8568	-0.0071570165
159	0xbc97c8f0	-0.018528432
160	0xbd20d72e	-0.03926771
161	0xbcdaea5d	-0.026723081
162	0xbb186860	-0.0023255572
163	0x3ce51c46	0.027967583
164	0x3ac8e140	0.0015325919
165	0x3cfb0686	0.030642759
166	0xbcf1b7ed	-0.029506648
167	0xbbf62480	-0.0075116754
168	0xbc314a6c	-0.010820966
169	0xbce23083	-0.027611023
170	0xbd0ab980	-0.033868313
171	0x3d0f9fcb	0.0350645
172	0x3cd36db6	0.02580915
173	0x3d124275	0.03570791
174	0x3d1b5d79	0.03793094
175	0xbc13f4cc	-0.009030532
176	0xbbb4f9f0	-0.005522959
177	0x3cd83c8e	0.026396062
178	0xbcf416dd	-0.029796058
179	0xbd287c3e	-0.04113411
180	0xbc69bd14	-0.014266271
181	0x3cd05432	0.025430772
182	0x3cbbd082	0.022926573
183	0xbcea0ca7	-0.028570486
184	0x3d0ae801	0.033912662
185	0xbca59eda	-0.020217348
186	0x3c2cc7b4	0.01054566
187	0xbcb662fa	-0.022263993
188	0x3c264100	0.010147333
189	0xbd03b2d2	-0.03215296
190	0x3cd78e4e	0.026312973
191	0x3d424771	0.047431413
192	0xbc8b49f6	-0.01700304
193	0xbcf1f2b0	-0.029534668
194	0x3ce2539e	0.027627762
195	0x3cf0f026	0.029411387
196	0xbc828e66	-0.015937041
197	0x3d074b2d	0.033030678
198	0x3c4ccbe0	0.012499779
199	0x3d48c44d	0.049015332
200	0xbcf5f8b7	-0.030025823
201	0xbd363077	-0.044479813
202	0xbd1edb6b	-0.038783472
203	0xbcf2707d	-0.029594654
204	0x3c2424f4	0.010018576
205	0x3d0fcfb1	0.03511018
206	0xba15bd40	-0.00057120994
207	0x3cdea386	0.027177583
208	0xbd0fcdf6	-0.03510853
209	0xbcf77560	-0.030207336
210	0xbacb6900	-0.0015518963
211	0x3d34f153	0.044175457
212	0xbd123e18	-0.03570375
213	0x3b93b590	0.004507728
214	0xbd29f61b	-0.04149447
215	0x3d443c07	0.04790881
216	0xbd3d56da	-0.046225406
217	0xbc2dbcc0	-0.010604084
218	0xbd34fdb3	-0.04418726
219	0x3ceb31ea	0.028710324
220	0x3d474a59	0.048654888
221	0xbcb379fd	-0.021908754
222	0xbd2e2bcb	-0.042522233
223	0xbb952e30	-0.004552625
224	0xbccc4aa0	-0.024937928
225	0x3d167f17	0.036742296
226	0xbd0c9950	-0.034325898
227	0x3ce69bc6	0.02815045
228	0x3cbb56ae	0.02286848
229	0x3c03bbac	0.00804035
230	0x3d0b09a3	0.033944737
231	0x3c882de2	0.016623441
232	0xbd012b8c	-0.03153567
233	0xbbdd3ad8	-0.0067513995
234	0xbcfcaa03	-0.030842787
235	0xbc7b57e0	-0.015340775
236	0xbd16a65b	-0.036779743
237	0xbc71ff08	-0.014770277
238	0x3d3a8805	0.045539875
239	0xbccedafd	-0.025250906
240	0x3cd9142e	0.02649888
241	0xbd473ce3	-0.04864205
242	0xbcb9546a	-0.02262326
243	0x3d34a149	0.044099126
244	0xbc5aee60	-0.013362497
245	0x3c9a56ce	0.01884022
246	0x3d44faa9	0.04809061
247	0x3cde4282	0.027131323
248	0x3d2735df	0.04082286
249	0xbce05eda	-0.027388979
250	0xbd39e62d	-0.04538553
251	0x3d459eb3	0.04824705
252	0xbd14b945	-0.0363095
253	0xbc78414c	-0.015152287
254	0x3ca6fae6	0.02038331
255	0xbca53a10	-0.020169288

linear3.weight f4 [1, 300]
0	0xbde95b01	-0.11394311
1	0xbdac2630	-0.08405721
2	0xbd9db943	-0.077013515
3	0x3e0f41d4	0.13989955
4	0x3d98fe5a	0.07470389
5	0x3dbec45e	0.09314798
6	0xbdad99c6	-0.084765956
7	0xbe0ba7b3	-0.13638191
8	0xbd404040	-0.046936274
9	0xbddf2527	-0.10895758
10	0x3c38fab0	0.011290237
11	0x3dc5fc5a	0.09667273
12	0x3d378cb8	0.044811934
13	0xbdb71374	-0.08939257
14	0xbd6643cc	-0.056217
15	0x3cdeea68	0.027211383
16	0xbcc4a55c	-0.02400463
17	0xbc08a4c0	-0.008340061
18	0x3d57b31c	0.052661046
19	0x3ddb8912	0.107195035
20	0xbd4501a6	-0.048097275
21	0xbdf2adad	-0.11849532
22	0xbd1af8b8	-0.037834853
23	0x3de63080	0.112397194
24	0x3dce93d8	0.10086793
25	0x3c9ca380	0.019120932
26	0xbdd388c4	-0.1032882
27	0xbdb347b2	-0.08753909
28	0xbc2971f0	-0.010342106
29	0xbd5c253e	-0.053746454
30	0xbc9033d4	-0.017602839
31	0xbc91e914	-0.017811336
32	0xbd84d831	-0.06486548
33	0x3d058ffc	0.032608017
34	0xbe020fa6	-0.12701282
35	0x3df5368c	0.119732946
36	0x3cc46a98	0.02397661
37	0x3db4697e	0.088091835
38	0x3deb72c4	0.11496499
39	0x3dbf0a76	0.09328167
40	0xbe0dcd7d	-0.13847919
41	0x3e0c3c9c	0.13694996
42	0xba0c5700	-0.000535354
43	0xbe0c3687	-0.13692676
44	0xbe0c96c8	-0.13729393
45	0xbcced0a0	-0.025245965
46	0xbdd48900	-0.10377693
47	0xbe0939b4	-0.13400918
48	0x3db1648e	0.086617574
49	0x3dab9582	0.08378126
50	0x3ca06d88	0.019583479
51	0x3d9d5728	0.07682639
52	0xbde6c130	-0.11267316
53	0x3d8f4636	0.069958135
54	0x3d01c554	0.031682327
55	0x3daf40a6	0.085572526
56	0xbd884e96	-0.06655614
57	0xbd1de3c0	-0.038547277
58	0xbdc08050	-0.09399474
59	0x3b2fd300	0.0026828647
60	0xbde122b6	-0.10992949
61	0xbd814b6b	-0.06313213
62	0x3d45f0b0	0.04832524
63	0x3da20a4a	0.07912119
64	0xbcb8bfcc	-0.022552393
65	0xbddf26d6	-0.10896079
66	0x3cc727c0	0.024310946
67	0x3cf346d8	0.029696867
68	0x3d8c7576	0.068583414
69	0xbdbcaf4e	-0.09213124
70	0x3de3c15c	0.11120865
71	0x3caa9620	0.020823538
72	0x3a266800	0.00063478947
73	0x3dfb3ae8	0.12267095
74	0x3df3b140	0.11899042
75	0xbd89f85e	-0.067368254
76	0xbd9faaea	-0.07796271
77	0xbbda46e0	-0.006661281
78	0xbda4d036	-0.080475256
79	0x3e0af096	0.13568339
80	0xbdd6908f	-0.10476791
81	0xbc9b848c	-0.018984102
82	0x3defc864	0.11708143
83	0x3d175970	0.03695053
84	0x3cb3b9a0	0.021939099
85	0x3c1937a0	0.009351641
86	0xbcb4f3b4	-0.022088863
87	0xbdca09e2	-0.09865166
88	0xbe0e9e24	-0.13927513
89	0xbdd0a22a	-0.1018718
90	0x3d8a887c	0.067643136
91	0x3dd47016	0.10372941
92	0x3d822e80	0.063565254
93	0x3d3b77fc	0.045768723
94	0xbd776d7a	-0.06040714
95	0xbe03a8f6	-0.12857422
96	0x3d70acf8	0.058758706
97	0xbd9f76b4	-0.07786313
98	0xbdd01ea8	-0.10162097
99	0x3d138d18	0.03602323
100	0x3df5d3dc	0.120032996
101	0x3ce36b18	0.027761027
102	0xbbcbbb80	-0.00621742
103	0x3bcd3060	0.0062618703
104	0xbdf5bec7	-0.119992785
105	0xbc7d6ea0	-0.01546827
106	0xbdb8a33f	-0.09015512
107	0xbd855f92	-0.06512369
108	0xbe05747f	-0.13032721
109	0xbbbf5980	-0.0058395267
110	0x3cf61498	0.030039117
111	0x3dc5c906	0.09657483
112	0x3ddfdf1c	0.109312266
113	0xbe106184	-0.140997
114	0x3dd8ea3c	0.10591552
115	0xbd5e5ade	-0.054285876
116	0x3d51e6c8	0.05124548
117	0xbda54ed0	-0.08071673
118	0xbc3981c0	-0.011322439
119	0xbc440730	-0.011964604
120	0xbd8aadf8	-0.06771463
121	0xbc030390	-0.007996455
122	0x3da2d990	0.07951653
123	0xbd8b7f59	-0.06811399
124	0x3c8a3288	0.016869798
125	0x3dece704	0.115675
126	0xbcf3d698	-0.029765412
127	0x3b5b1b00	0.0033432841
128	0x3dfe6bfc	0.1242294
129	0xbde7f52d	-0.113260604
130	0x3d46fdb8	0.04858181
131	0x3d9270e0	0.071504354
132	0xbcfeb558	-0.03109233
133	0x3ddddca4	0.108330995
134	0xbdb34d96	-0.08755033
135	0x3ddb0eb0	0.10696161
136	0x3cb3ed48	0.02196373
137	0x3aa1f300	0.0012355745
138	0xbd4ddda6	-0.05026021
139	0x3d633498	0.05547008
140	0xbe0b5de3	-0.13610034
141	0x3d9c5dfa	0.07635112
142	0x3d9e152a	0.077188805
143	0x3d16b3bc	0.0367925
144	0x3d847204	0.06467059
145	0x3d95d392	0.073157445
146	0x3ddf9e9c	0.10918924
147	0xbdd75c4a	-0.105156496
148	0x3dd58a42	0.10426761
149	0xbdd58c76	-0.104271814
150	0xbdbc3d22	-0.09191348
151	0x3d032788	0.03202012
152	0x3b569b80	0.0032746494
153	0xbde9869a	-0.11402626
154	0xbdc3700b	-0.09542855
155	0x3dd9ce40	0.10635042
156	0xbddc096d	-0.10743985
157	0x3df73188	0.12069994
158	0xbcdaa52c	-0.026690088
159	0x3e084b5a	0.13309994
160	0xbccd6fc4	-0.025077708
161	0xbc9ae02c	-0.018905722
162	0xbd69c146	-0.057069086
163	0xbd52f1c2	-0.05150009
164	0x3db1ee4a	0.08688028
165	0xbc324890	-0.010881558
166	0xbdda2b58	-0.106527984
167	0xbdef1a3a	-0.11674924
168	0xbdb63741	-0.088972576
169	0xbcd12180	-0.02552867
170	0x3d4abfcc	0.049499318
171	0xbda23d9f	-0.079219095
172	0xbd28de22	-0.041227467
173	0x3d61e330	0.055148304
174	0xbd87708f	-0.06613266
175	0x3e0d0a68	0.13773501
176	0xbd08a6aa	-0.03336207
177	0xbdfe2058	-0.12408513
178	0x3e027bd6	0.12742552
179	0xbc638090	-0.013885632
180	0xbd68ea6c	-0.056864187
181	0xbd9ff5fe	-0.07810591
182	0xbd0be19c	-0.034150705
183	0x3c467c00	0.012114525
184	0xbdf2627a	-0.11835189
185	0xbdf6a88c	-0.120438665
186	0xbd8645fd	-0.06556318
187	0xbdf2a009	-0.118469305
188	0xbda82fb0	-0.08212221
189	0xbd52fbec	-0.051509783
190	0x3e06786a	0.13131872
191	0x3dbd7cce	0.0925232
192	0x3cfd1b78	0.030896887
193	0x3e0c5cfa	0.13707343
194	0xbdeda3cd	-0.11603508
195	0x3dd0da76	0.10197918
196	0xbd7e0b40	-0.062022448
197	0x3e0e7466	0.1391159
198	0x3dc34358	0.09534329
199	0xbdbbd738	-0.09171909
200	0xbd592d02	-0.05302144
201	0xbcfcfc88	-0.030882135
202	0xbdf59270	-0.11990821
203	0xbda4f2fe	-0.080541596
204	0x3da0ea46	0.07857184
205	0x3c1f78c0	0.009733379
206	0x3db7828a	0.08960445
207	0x3d88cf18	0.06680125
208	0xbdd4d554	-0.103922516
209	0xbd2b9ad6	-0.04189571
210	0xbe1063ab	-0.1410052
211	0x3d3c9740	0.04604268
212	0x3d9b762a	0.075908974
213	0xbd0f1116	-0.034928404
214	0xbe0159c8	-0.12631905
215	0xbe09898f	-0.1343138
216	0x3c816128	0.015793398
217	0xbdb70240	-0.08935976
218	0xbdae5535	-0.08512346
219	0x3d910588	0.07081133
220	0xbe016752	-0.1263707
221	0xbc7431d0	-0.014904454
222	0xbd676a1a	-0.05649767
223	0xbdd5053f	-0.10401391
224	0xbbce1aa0	-0.006289795
225	0xbbdc3660	-0.006720349
226	0x3e0132dc	0.12617058
227	0xbda9e840	-0.08296251
228	0x3d935c00	0.07195282
229	0xbd01ecd0	-0.031719983
230	0xbe071055	-0.13189824
231	0x3e0f9ee8	0.14025462
232	0x3c18acc0	0.009318531
233	0x3da68528	0.08130866
234	0x3db36a88	0.087605536
235	0x3b82dd00	0.0039936304
236	0xbe0716c9	-0.13192286
237	0xbdb3f042	-0.0878606
238	0x3da59094	0.08084217
239	0xbdc78db5	-0.09743825
240	0xbd8590ad	-0.06521735
241	0xbd343c90	-0.04400307
242	0xbd57a67c	-0.052649006
243	0x3c7fe3b0	0.01561825
244	0x3d67a1f8	0.05655095
245	0xbdc224d9	-0.094796844
246	0x3ce774e0	0.028253973
247	0xbcc94f8c	-0.024574064
248	0x3d0d9410	0.03456503
249	0xbd24df58	-0.04025206
250	0x3d5838ec	0.05278866
251	0xbd0df7f4	-0.034660295
252	0xbe0cf4e2	-0.1376529
253	0x3def3b50	0.11681235
254	0x3d2ddb28	0.04244533
255	0xb9e33400	-0.00043335557
